archive/eeg_embeddings/model.pth (torch, 293084 bytes, 10 tensors)

conv_layers.0.weight f4 [16, 1, 3]
-0.5477313 0.25114557 -0.037509233 0.08246246 -0.37548134 -0.270337 0.08234624 -0.44105887
0.0937582 -0.5271076 0.32556129 -0.36253616 0.5454578 0.30846056 -0.4976268 -0.11803938
-0.0033785698 -0.21810654 0.17711215 0.024459189 -0.39717758 -0.13832611 0.36193845 -0.3739388
-0.15987648 0.5143321 0.107877165 -0.12257973 0.40473098 0.20386864 -0.37344706 -0.19938399
-0.01614923 0.42190328 -0.337309 -0.5670178 0.20450447 -0.2657417 -0.37605718 -0.06492558
-0.33353186 0.3677275 0.022385633 -0.15455556 0.15596522 -0.29292026 0.2723247 0.008798667
00000000: 1e38 0cbf 2796 803e 48a3 19bd 14e2 a83d
00000010: 173f c0be 9c69 8abe 25a5 a83d 78d2 e1be
00000020: 4d04 c03d 86f0 06bf f8af a63e 579e b9be
00000030: 1fa3 0b3f 8bee 9d3e f1c8 febe a1be f1bd
00000040: ff6a 5dbb 5257 5fbe e35c 353e a35e c83c
00000050: dc5a cbbe 5ca5 0dbe ff4f b93e e874 bfbe
00000060: a9b6 23be 45ab 033f b4ee dc3d 150b fbbd
00000070: e638 cf3e f1c2 503e 7434 bfbe 512b 4cbe
00000080: 644b 84bc b503 d83e c4b3 acbe 1428 11bf
00000090: 9f69 513e 4c0f 88be 918a c0be b4f7 84bd
000000a0: b0c4 aabe c746 bc3e 1362 b73c d043 1ebe
000000b0: 59b5 1f3e a5f9 95be 256e 8b3e 4928 103c

conv_layers.0.bias f4 [16]
0.26621196 0.41287535 -0.4487387 -0.6543314 0.28369007 -0.35103464 -0.6208962 0.36391678
0.41709286 -0.49920225 0.26341215 -0.019936603 0.61618173 -0.5175887 0.9591231 0.08136083
00000000: ef4c 883e 6664 d33e 14c1 e5be 4382 27bf
00000010: d33f 913e d0ba b3be 0ef3 1ebf 4d53 ba3e
00000020: 328d d53e 7097 ffbe f5dd 863e 1652 a3bc
00000030: 16be 1d3f b180 04bf 1789 753f 82a0 a63d

conv_layers.1.weight f4 [32, 16, 5]
-0.015003666 0.03694525 0.044184715 0.1406428 -0.23651429 0.05378878 0.039997008 -0.1810361
-0.17420176 0.03625467 -0.03508726 0.14090957 0.046152346 -0.38694212 -0.11138882 -0.041168816
-0.048287384 -0.046576127 -0.3157832 -0.21933745 0.054236535 0.08184772 0.024643011 0.12582621
0.03996425 -0.04460723 0.14842895 -0.07654132 -0.252961 0.049984906 -0.23385601 -0.14403568
-0.027184125 0.014706877 0.2021829 0.055853076 -0.0038996246 -0.025480973 0.024090424 0.12307687
0.04781369 0.029023891 -0.054611214 -0.029878225 -0.041393563 0.06924971 -0.09127112 0.095950864
-0.01666395 0.031086847 0.06504417 0.00078155124 0.01584405 -0.23831059 -0.15536803 -0.057409123
-0.19323394 0.03566641 0.010155597 0.10917537 0.11878803 0.06573227 -0.25060362 -0.08783624
0.15926316 -0.049630936 -0.15301724 -0.18811077 -0.17655148 -0.13186556 -0.054249227 0.09717509
-0.08298229 -0.08816616 -0.08587359 0.02494086 0.0016973118 -0.06595426 -0.09424832 -0.0082074925
0.057852976 -0.022911726 -0.084577695 -0.024947185 -0.071243405 -0.029738845 -0.0103826225 0.08890083
-0.03451682 0.04776258 -0.04195308 0.09308999 -0.04683407 -0.06847612 0.0021698487 0.07991831
0.07958524 -0.09087543 0.0027420248 -0.06978358 0.057430636 -0.03655169 -0.025846573 0.05686296
-0.012411374 0.066082954 -0.0845542 -0.0168614 0.07847538 0.1033322 -0.06404068 -0.051358312
-0.06959493 -0.09685988 0.070217155 0.07646432 -0.011646543 0.050518468 -0.0731042 0.029002631
-0.1060909 0.08794622 0.07237514 0.078083925 0.021035312 0.026737103 -0.09760179 0.01878409
0.048657928 -0.0692137 0.0292347 -0.107459605 0.035396654 0.0052167284 0.0637456 0.03342138
0.0879223 0.002434935 -0.066249214 0.08217662 -0.054532625 -0.04803216 -0.062225454 0.06539018
0.04071978 -0.10716052 -0.109873645 0.01855083 -0.0076998887 -0.029513488 0.09473946 0.104501165
0.077586815 0.06848874 -0.07891835 0.08394776 -0.0445397 0.03922135 0.07548401 0.0030583276
-0.10059966 -0.03185072 0.101187624 -0.029503666 -0.10365699 0.030146204 -0.097862326 -0.07896937
-0.0073618544 -0.03419547 0.11374973 0.015195387 -0.033031154 -0.03384959 -0.041036956 -0.08381145
-0.1081134 -0.099834025 0.06882184 0.0113686845 -0.029356094 -0.12457523 -0.14363624 -0.0815702
-0.0041324585 -0.0025169852 0.10381977 0.0814792 0.02041381 0.06812603 0.07413481 0.07475657
-0.05062781 0.08394612 0.04429428 0.073864095 -0.04235742 0.09812697 -0.0005685076 0.037043337
-0.07309887 -0.1307546 -0.03059456 0.009544445 -0.10594367 0.038456768 -0.04260449 0.1800565
-0.057038285 0.0015350196 0.06821654 0.1002215 -0.007528447 0.0018160103 -0.06741299 -0.03552895
0.029633801 0.026376178 -0.04830298 0.09432056 0.018110601 0.016341412 -0.0034576003 -0.0571996
0.014946219 0.02343915 0.1049016 0.090596564 0.010740472 -0.11185321 -0.1780759 -0.101159655
-0.07960985 -0.030274196 -0.15438828 0.021387182 -0.07063763 -0.08411351 -0.11089163 0.041456927
0.0495819 -0.05439995 -0.0037752092 -0.00015586177 0.06664228 0.091934964 -0.005634202 0.08739351
-0.0152124055 0.120409876 -0.09833831 0.049153596 0.1052559 0.03478157 0.04443088 -0.08855064
00000000: f0d1 75bc e753 173d 08fb 343d ab04 103e
00000010: cd30 72be a051 5c3d e7d3 233d 8761 39be
00000020: f261 32be c77f 143d a9b7 0fbd 994a 103e
00000030: 3e0a 3d3d 471d c6be d21f e4bd a2a0 28bd
00000040: fec8 45bd 9cc6 3ebd 56ae a1be ff99 60be
00000050: 2127 5e3d c79f a73d 24e0 c93c 96d8 003e
00000060: 8eb1 233d 12b6 36bd c2fd 173e b2c1 9cbd
00000070: 1b84 81be f9bc 4c3d f377 6fbe 177e 13be
00000080: 3eb1 debc 1df5 703c 0909 4f3e 32c6 643d
00000090: d890 7fbb 79bd d0bc 4859 c53c ba0f fc3d
000000a0: 4ad8 433d 83c3 ed3c 02b0 5fbd 2ec3 f4bc
000000b0: 4c8c 29bd cbd2 8d3d 5aec babd e381 c43d
000000c0: d682 88bc d8a9 fe3c e135 853d 04e1 4c3a
000000d0: 62cb 813c b107 74be cc18 1fbe d425 6bbd
000000e0: 1edf 45be f116 123d a963 263c 5697 df3d
000000f0: 2447 f33d a49e 863d 1e4f 80be 7de3 b3bd
00000100: e215 233e cf49 4bbd 8db0 1cbe 1ca0 40be
00000110: e9c9 34be c407 07be 7034 5ebd bc03 c73d
00000120: 9ef2 a9bd 7690 b4bd 7ede afbd c650 cc3c
00000130: 5578 de3a 0713 87bd 4305 c1bd b878 06bc
00000140: 3ef7 6c3d 5fb1 bbbc 1237 adbd 0a5e ccbc
00000150: 10e8 91bd e19e f3bc e01b 2abc a311 b63d
00000160: 8261 0dbd b2a2 433d fed6 2bbd f7a5 be3d
00000170: 15d5 3fbd 353d 8cbd 0534 0e3b 36ac a33d
00000180: 96fd a23d e61c babd 8bb3 333b b2ea 8ebd
00000190: 633c 6b3d 3ab7 15bd 31bc d3bc 23e9 683d
000001a0: 1359 4bbc 8056 873d c12a adbd eb20 8abc
000001b0: b3b7 a03d d59f d33d c327 83bd 185d 52bd
000001c0: c987 8ebd 795e c6bd 03ce 8f3d 5399 9c3d
000001d0: 24d1 3ebc 74ec 4e3d a8b7 95bd ed96 ed3c
000001e0: 3046 d9bd 261d b43d 6b39 943d 77ea 9f3d
000001f0: 3f52 ac3c c507 db3c 73e3 c7bd 18e1 993c
00000200: 894d 473d eabf 8dbd 9c7d ef3c c813 dcbd
00000210: 15fc 103d 17f1 aa3b 0e8d 823d dbe4 083d
00000220: 9b10 b43d 6e93 1f3b abad 87bd 374c a83d
00000230: 9a5d 5fbd 5fbd 44bd 1ee0 7ebd 49eb 853d
00000240: c9c9 263d fa76 dbbd 6f05 e1bd e9f7 973c
00000250: 594f fcbb 45c6 f1bc c306 c23d b504 d63d
00000260: d6e5 9e3d d343 8c3d f29f a1bd ceec ab3d
00000270: 436f 36bd 91a6 203d 5c97 9a3d 396e 483b
00000280: 3207 cebd e775 02bd 753b cf3d acb1 f1bc
00000290: 1e4a d4bd 2cf5 f63c 0b6c c8bd b1ba a1bd
000002a0: b63b f1bb 8d10 0cbd 9ef5 e83d 13f6 783c
000002b0: ad4b 07bd dea5 0abd 5e16 28bd 56a5 abbd
000002c0: 8f6a ddbd c875 ccbd 77f2 8c3d b843 3a3c
000002d0: 317c f0bc 4c21 ffbd 6115 13be 470e a7bd
000002e0: 9369 87bb 01f4 24bb 769f d43d 91de a63d
000002f0: dd3a a73c a985 8b3d fed3 973d f919 993d
00000300: 1b5f 4fbd f2eb ab3d eb6d 353d 0f46 973d
00000310: f97e 2dbd cbf6 c83d e607 15ba c1ba 173d
00000320: dcb4 95bd 89e4 05be 71a1 fabc 4e60 1c3c
00000330: fff8 d8bd d884 1d3d 0c82 2ebd bb60 383e
00000340: faa0 69bd b632 c93a 1db5 8b3d ee40 cd3d
00000350: 31b1 f6bb 3207 ee3a d20f 8abd ce86 11bd
00000360: 96c2 f23c db12 d83c 58d9 45bd 232b c13d
00000370: af5c 943c 6dde 853c e898 62bb 214a 6abd
00000380: fce0 743c 7603 c03c a6d6 d63d b18a b93d
00000390: cef8 2f3c 4c13 e5bd 8759 36be cb2c cfbd
000003a0: 7d0a a3bd 9701 f8bc f617 1ebe 2c34 af3c
000003b0: 76aa 90bd b443 acbd 271b e3bd bdce 293d
000003c0: 6416 4b3d 7bd2 5ebd 8069 77bb d36e 23b9
000003d0: bf7b 883d 6648 bc3d 1d9f b8bb 5efb b23d
000003e0: 743d 79bc 7499 f63d 9965 c9bd 4855 493d
000003f0: 6890 d73d 1f77 0e3d 28fd 353d 0a5a b5bd

conv_layers.1.bias f4 [32]
0.019741176 0.144051 -0.17510901 0.13383748 0.014152824 0.14036258 0.26795053 -0.049394164
-0.0048660487 0.1155154 0.048917968 -0.10191843 -0.004202669 -0.16339555 -0.22211419 0.26124218
-0.24719538 0.19284289 -0.08600058 0.10321606 -0.30272385 0.2029864 0.05653659 -0.13099197
0.14302482 -0.081708185 -0.12683146 -0.2740242 0.08021791 -0.085188024 -0.1348909 0.10121556
00000000: 3fb8 a13c 1b82 133e c74f 33be b10c 093e
00000010: 3fe1 673c 35bb 0f3e d030 893e 8951 4abd
00000020: 6073 9fbb 5793 ec3d 355e 483d 9cba d0bd
00000030: 8bb6 89bb 2a51 27be e771 63be 89c1 853e
00000040: c920 7dbe 9b78 453e 1221 b0bd f162 d33d
00000050: 9ffe 9abe abdb 4f3e e992 673d c222 06be
00000060: 1975 123e 9f56 a7bd 1be0 01be e64c 8cbe
00000070: 4a49 a43d 0f77 aebd d720 0abe 1b4a cf3d

conv_layers.2.weight f4 [16, 32, 3]
-0.050623767 0.122647054 -0.05559579 0.005861721 0.07787003 0.035107546 -0.05017231 -0.070448756
-0.044219323 0.0876051 -0.0816102 -0.016897945 -0.11412714 -0.061631136 -0.046569463 0.072093636
-0.062094063 -0.040679876 0.07796975 -0.012290908 -0.06992193 0.06769947 0.09457928 -0.1051201
0.08195565 0.029545859 0.004791468 -0.05036039 -0.012364494 -0.02411803 0.04072849 0.019362843
0.026639448 -0.048493758 -0.102270104 0.06018521 0.081086986 0.109381005 -0.06896836 -0.03194871
-0.054469313 -0.05803238 0.06523329 0.0869259 0.058440097 -0.01971717 0.034624625 0.020546524
-0.087467946 -0.06337741 0.053175166 -0.004043926 -0.03029131 0.05286581 -0.079900384 -0.065588795
0.07275087 -0.0436363 0.05773817 0.025954416 -0.046521362 0.01570868 0.016145643 -0.053158913
0.031675365 -0.04976349 0.047247127 0.043934524 0.03052627 -0.07873012 -0.045507565 0.08040198
-0.09803712 -0.070260175 -0.06505288 -0.008714193 -0.0060582813 -0.05849786 -0.084499866 -0.015980486
-0.024242578 -0.102351986 0.050114397 0.010306912 0.065210305 -0.09155081 -0.014537519 -0.04605628
-0.037998293 -0.01504677 -0.013941006 -0.01491498 0.06848472 -0.1127402 0.027223827 -0.078428455
-0.06279211 0.01937107 0.11148688 -0.0715589 -0.07642805 0.021103038 0.042307373 -0.007953594
-0.013120392 0.02129366 -0.05219563 0.07164072 -0.040153246 -0.013523917 0.036185835 0.05172776
0.0031830324 -0.07905811 0.023278233 0.037255984 0.046420235 -0.04952445 -0.008232249 0.056195173
-0.033544824 -0.036140688 0.027282186 0.0019958466 -0.00080145884 -0.005823548 -0.057652332 0.057275165
0.012798299 -0.06993659 -0.05916608 -0.09509042 -0.2571628 -0.26629654 -0.07022754 0.03048893
0.008478646 -0.02313559 0.15376993 0.01174346 0.033388644 -0.08867782 -0.11252932 0.0047585964
-0.071657546 0.006436408 0.08627013 -0.01770977 0.056581434 -0.044816967 0.073288105 -0.080216974
0.056918293 -0.058688276 -0.08789545 0.015051293 -0.06323493 -0.09732314 -0.035042986 -0.049218178
0.015551009 -0.047317225 -0.03769185 0.057183288 -0.018465964 0.03855075 -0.017215272 0.00058340235
0.024348747 -0.01828381 -0.06386719 0.05142705 0.06363605 -0.04844642 0.0015609241 -0.09766288
-0.08385485 0.09135877 0.042934053 -0.11178802 0.0071577784 0.0014990908 0.01667475 -0.054290537
0.048315477 0.053115685 0.020544944 0.015287756 -0.004871747 -0.031222627 0.0925808 0.077469975
-0.14294548 0.018648671 -0.15767065 -0.11611682 0.01550537 -0.061315954 0.0711435 -0.17107345
-0.023059798 -0.049539495 -0.10451427 0.08928577 0.06488913 -0.016334994 -0.04355042 0.021956922
-0.018317603 -0.025978131 0.029533185 -0.033675984 -0.03673301 0.05575268 0.044808935 0.09974093
0.05914021 -0.05705614 -0.087265894 -0.03436455 0.033096824 -0.0671047 -0.032023884 -0.030456156
-0.08965599 0.022299353 -0.06142373 -0.10304817 -0.06613764 -0.093322836 -0.070584625 -0.0835584
-0.03505472 -0.012755397 0.01245582 0.092115834 0.018932458 0.011091978 0.06852403 0.06813631
0.06272662 0.09397004 0.10045062 0.08031 -0.08420831 -0.008020301 0.012798616 -0.072896145
0.09180645 -0.05327811 -0.063308366 -0.0224896 -0.0037201268 -0.13125406 -0.08133751 -0.18436024
00000000: de5a 4fbd 612e fb3d 69b8 63bd ae13 c03b
00000010: 537a 9f3d eecc 0f3d 7b81 4dbd 7047 90bd
00000020: 521f 35bd 4d6a b33d 4023 a7bd 8f6d 8abc
00000030: 7dbb e9bd ee70 7cbd 9fbf 3ebd d4a5 933d
00000040: 5856 7ebd f19f 26bd 9bae 9f3d ce5f 49bc
00000050: 3b33 8fbd 05a6 8a3d c8b2 c13d 3549 d7bd
00000060: 5dd8 a73d 280a f23c bf01 9d3b b246 4ebd
00000070: 7294 4abc 2d93 c5bc ebd2 263d d39e 9e3c
00000080: f93a da3c 64a1 46bd fd72 d1bd c484 763d
00000090: ef10 a63d 2603 e03d 493f 8dbd a7dc 02bd
000000a0: 371b 5fbd 5cb3 6dbd 0899 853d 3506 b23d
000000b0: e25e 6f3d e785 a1bc 8dd2 0d3d 2f51 a83c
000000c0: 6522 b3bd 04cc 81bd 34ce 593d e982 84bb
000000d0: 7b25 f8bc d289 583d d0a2 a3bd 6b53 86bd
000000e0: 68fe 943d fabb 32bd dc7e 6c3d 5b9e d43c
000000f0: 2f8d 3ebd 7daf 803c de43 843c 29bd 59bd
00000100: 07be 013d cdd4 4bbd 3486 413d b0f4 333d
00000110: 3a12 fa3c 423d a1bd 2466 3abd cba9 a43d
00000120: b0c7 c8bd 91e4 8fbd 723a 85bd f9c5 0ebc
00000130: 8c84 c6bb 749b 6fbd 440e adbd 82e9 82bc
00000140: 5f98 c6bc eb9d d1bd c144 4d3d 52de 283c
00000150: fb8c 853d fe7e bbbd c62e 6ebc 83a5 3cbd
00000160: 19a4 1bbd ba86 76bc d168 64bc f65d 74bc
00000170: b841 8c3d 55e4 e6bd 8104 df3c 199f a0bd
00000180: 2699 80bd 14b0 9e3c 3c53 e43d 798d 92bd
00000190: 4f86 9cbd 47e0 ac3c 7f4a 2d3d cb4f 02bc
000001a0: eaf6 56bc 0b70 ae3c 16cb 55bd 5fb8 923d
000001b0: bb77 24bd 6b93 5dbc 9937 143d 7de0 533d
000001c0: 6c9a 503b 38e9 a1bd feb1 be3c bb99 183d
000001d0: 2523 3e3d 26da 4abd 8ee0 06bc e92c 663d
000001e0: 4c66 09bd 4208 14bd e47e df3c c0cc 023b
000001f0: fe18 52ba 76d3 bebb da24 6cbd 5d99 6a3d
00000200: f5af 513c ea3a 8fbd 2258 72bd c4be c2bd
00000210: d8aa 83be 0558 88be 75d3 8fbd ecc3 f93c
00000220: 05ea 0a3c d986 bdbc dd75 1d3e a467 403c
00000230: 88c2 083d b89c b5bd c675 e6bd 00ee 9b3b
00000240: 31c1 92bd 81e8 d23b 65ae b03d 1414 91bc
00000250: efc1 673d ff91 37bd 1318 963d cc48 a4bd
00000260: 2823 693d 1e63 70bd 8802 b4bd b399 763c
00000270: 5181 81bd 5b51 c7bd 3c89 0fbd 0099 49bd
00000280: a9c9 7e3c b5cf 41bd c562 1abd 0639 6a3d
00000290: ef45 97bc 64e7 1d3d 0b07 8dbc 78ef 183a
000002a0: 0677 c73c eec7 95bc cdcc 82bd 2ca5 523d
000002b0: 9e53 823d c16f 46bd ec97 cc3a 7a03 c8bd
000002c0: 17bc abbd 4f1a bb3d 9edb 2f3d 1ef1 e4bd
000002d0: cc8b ea3b 247d c43a 7c99 883c c15f 5ebd
000002e0: 73e6 453d d58f 593d df4d a83c 7f79 7a3c
000002f0: 2da3 9fbb 98c6 ffbc 019b bd3d 94a8 9e3d
00000300: 4d60 12be 19c5 983c 6a74 21be a8ce edbd
00000310: 3c0a 7e3c 7026 7bbd afb3 913d e12d 2fbe
00000320: e7e7 bcbc ede9 4abd 940b d6bd 75db b63d
00000330: 98e4 843d f7d0 85bc ed61 32bd 01df b33c
00000340: cc0e 96bc 17d0 d4bc 94ef f13c d4ef 09bd
00000350: 5a75 16bd ec5c 643d 9389 373d f944 cc3d
00000360: 013d 723d b3b3 69bd 76b8 b2bd d8c1 0cbd
00000370: 8990 073d 306e 89bd 7a2b 03bd 307f f9bc
00000380: 8f9d b7bd 22ad b63c 7397 7bbd eb0a d3bd
00000390: 2c73 87bd 0b20 bfbd ac8e 90bd ab20 abbd
000003a0: 8a95 0fbd 03fc 50bc 7f13 4c3c 3aa7 bc3d
000003b0: 3e18 9b3c 21bb 353c 5456 8c3d 0d8b 8b3d
000003c0: d076 803d 5d73 c03d 0eb9 cd3d 9279 a43d
000003d0: 6875 acbd 9567 03bc 49b1 513c 934a 95bd
000003e0: 0505 bc3d 263a 5abd d1a7 81bd 1c3c b8bc
000003f0: 5fcd 73bb 7767 06be 4894 a6bd eec8 3cbe

conv_layers.2.bias f4 [16]
-0.1156885 -0.10432141 -0.13401386 -0.2629905 -0.21165785 0.000107318505 -0.0566164 -0.09350822
-0.031945717 -0.043144397 -0.042080168 -0.34079435 0.06914755 -0.30485377 -0.15149589 -0.2760124
00000000: 18ee ecbd 77a6 d5bd ee3a 09be b1a6 86be
00000010: d6bc 58be 2f10 e138 99e6 67bd 3d81 bfbd
00000020: 83d9 02bd 2eb8 30bd 415c 2cbd 997c aebe
00000030: 3b9d 8d3d cb15 9cbe bd21 1bbe 7f51 8dbe

fc1.weight f4 [128, 500]
0.003101192 0.016675448 -0.046214975 -0.06459001 -0.06507785 -0.057619594 -0.061788447 -0.053770993
-0.06241769 0.0111187585 -0.025447808 0.02314007 0.0075542186 -0.05585316 -0.038211025 -0.046513766
0.025115455 0.026832338 -0.042660445 -0.000896645 0.016586062 -0.0118162865 -0.02966418 0.0144593185
0.017056677 0.025735324 0.02271586 -0.03795182 0.024128981 0.03329355 -0.024148043 0.027149325
-0.029464353 -0.05595604 -0.065998584 -0.031975802 0.009921976 0.0053843004 -0.011159359 -0.053717155
-0.047063153 -0.0373527 -0.040983394 0.010341246 -0.027720898 -0.024452765 0.017211016 -0.058721792
-0.037243202 0.015048978 0.010416268 -0.0045588394 -0.005935302 0.013253729 -0.028813759 0.0001529477
-0.02355508 0.008100011 0.022271816 0.024511343 -0.025257856 -0.040682632 -0.0057235216 -0.008980374
0.032767717 -0.003496952 -0.024738036 -0.0380453 -0.039396614 -0.0039133136 0.031307045 -0.006119148
-0.022938943 -0.018884279 0.026221216 -0.02173878 0.021467585 0.040661693 -0.025888557 0.018434523
0.00019300875 -0.0032666193 -0.04092882 -0.029838093 -0.041325677 -0.030318663 0.007810263 -0.03257186
-0.04099784 0.028826019 0.031414684 0.016144866 0.010888306 0.00029729863 0.009365923 -0.049365763
-0.0039549777 -0.013203446 0.017239844 -0.028712785 -0.022765042 -0.0608267 -0.020744646 -0.012209808
0.013326937 -0.06143293 -0.07472057 -0.005788618 0.008248718 -0.0083202645 -0.012843569 -0.03170879
-0.017972138 -0.005302762 0.008622817 -0.01509912 -0.058931645 -0.058067687 0.00012798792 -0.017078996
-0.016141862 -0.011268663 0.0067113745 0.036318757 0.012244337 0.016576644 -0.011431419 0.026682718
0.033991553 0.004735423 0.030139768 0.037730705 -0.021689072 -0.008896342 0.011317844 0.0024418
0.043373 -0.017851302 0.030398853 0.015717676 -0.02751316 0.034181524 0.016545363 0.012203309
0.007702568 0.0066816723 0.032426953 0.001975255 0.0025616528 0.011432991 -0.010834345 -0.037477862
-0.01359028 -0.0055612084 0.04417593 -0.0391994 0.0030691698 -0.0361756 -0.04812673 -0.0073609096
-0.02454785 -0.03596271 -0.0136739 0.02861546 0.025141228 -0.020966643 0.04121546 -0.037335817
0.03270635 0.018268378 -0.031010112 0.04994075 0.030238971 -0.006542 0.029506031 0.053011708
0.0015219089 0.022076381 -0.0008554044 -0.0068129986 0.029964238 0.014450566 0.032885272 -0.02820594
0.040318456 0.024358768 -0.020395253 0.02125064 0.028419616 -0.0030601472 -0.00019218415 0.045965053
0.015096673 -0.025677228 -0.027800722 -0.028173883 0.043778192 0.002857863 0.04201765 0.03133542
0.04437187 0.018836277 -0.0074566226 0.04014142 0.023435846 0.040024765 0.045946345 -0.0062127956
-0.03439424 0.032612883 -0.016808834 0.016945988 0.017390031 -0.022953287 0.028492289 0.015895981
0.02658628 0.0021314889 -0.01752727 -0.037752256 0.038874738 -0.021723561 -0.028498154 0.026934125
0.049086247 0.03554261 -0.018094484 -0.028078953 -0.032216184 0.027033545 -0.024180101 -0.018131925
-0.01651711 0.014022883 0.0075350804 -0.03596156 -0.031826124 -0.028360149 -0.030214908 0.03578888
0.021718686 -0.044046924 -0.005104006 -0.045539174 -0.03093735 0.009320214 0.013856815 0.029430382
-0.033551898 0.008464603 0.026303416 0.02308879 0.027546493 0.011568209 -0.00830226 0.0005933687
00000000: 5e3d 4b3b f39a 883c ea4b 3dbd c447 84bd
00000010: 8947 85bd 8602 6cbd e215 7dbd f93e 5cbd
00000020: b1a9 7fbd 742b 363c ec77 d0bc 3e90 bd3c
00000030: 6189 f73b 48c6 64bd 2a83 1cbd 3885 3ebd
00000040: edbe cd3c 7ecf db3c b8bc 2ebd d40c 6bba
00000050: 7edf 873c 1999 41bc 4b02 f3bc c7e6 6c3c
00000060: 72ba 8b3c e3d2 d23c 9c16 ba3c 5e73 1bbd
00000070: 24aa c53c d15e 083d 1ed2 c5bc 4368 de3c
00000080: 3a5f f1bc 2932 65bd 442a 87bd 0ff9 02bd
00000090: c98f 223c c96e b03b bed5 36bc 8506 5cbd
000000a0: 4bc5 40bd 25ff 18bd 34de 27bd 546e 293c
000000b0: f016 e3bc 2a51 c8bc 1efe 8c3c 4386 70bd
000000c0: 548c 18bd fd8f 763c ffa8 2a3c 5162 95bb
000000d0: ec7c c2bb 2b26 593c d50a ecbc 9660 2039
000000e0: 95f6 c0bc e9b5 043c 6273 b63c 03cc c83c
000000f0: 90e9 cebc d5a2 26bd 618c bbbb 6b22 13bc
00000100: 7137 063d 1e2d 65bb 6ca7 cabc 63d5 1bbd
00000110: 585e 21bd 413b 80bb d13b 003d 2283 c8bb
00000120: 73ea bbbc 34b3 9abc e0cd d63c 8715 b2bc
00000130: cadc af3c e08c 263d 3d14 d4bc ff03 973c
00000140: 6462 4a39 c714 56bb faa4 27bd 046f f4bc
00000150: 1d45 29bd d85e f8bc 3ced ff3b 126a 05bd
00000160: 5aed 27bd 8b24 ec3c afac 003d 3d42 843c
00000170: de64 323c bfde 9b39 8773 193c c133 4abd
00000180: c298 81bb 4453 58bc 933a 8d3c 1337 ebbc
00000190: c17d babc 6b25 79bd adf0 a9bc a60b 48bc
000001a0: 3a59 5a3c 19a1 7bbd 1907 99bd 72ae bdbb
000001b0: a225 073c b851 08bc d56d 52bc 14e1 01bd
000001c0: 4e3a 93bc cbc2 adbb b746 0d3c 4d62 77bc
000001d0: 4f62 71bd 62d8 6dbd 7f34 0639 40e9 8bbc
000001e0: f03b 84bc 33a0 38bc 17eb db3b fac2 143d
000001f0: 799c 483c becb 873c d94a 3bbc b795 da3c
00000200: ba3a 0b3d 9b2b 9b3b ade7 f63c 838b 1a3d
00000210: 48ad b1bc f6c1 11bc 7a6e 393c 9b06 203b
00000220: e3a7 313d e53c 92bc 0407 f93c 5bc2 803c
00000230: 4763 e1bc ed01 0c3d 248a 873c 63f0 473c
00000240: d365 fc3b eef1 da3b 20d2 043d 4873 013b
00000250: 67e1 273b 7151 3b3c 8982 31bc 6382 19bd
00000260: c4a9 5ebc cc3a b6bb d2f1 343d 8d8f 20bd
00000270: 2024 493b de2c 14bd 8920 45bd c933 f1bb
00000280: 9318 c9bc a24d 13bd 7e08 60bc f86a ea3c
00000290: faf4 cd3c 3dc2 abbc 8bd1 283d 71ed 18bd
000002a0: 18f7 053d 91a7 953c eb08 febc ac8e 4c3d
000002b0: b8b7 f73c 465e d6bb a2b6 f13c ce22 593d
000002c0: ca7a c73a 87d9 b43c 383d 60ba 933f dfbb
000002d0: 9077 f53c 11c2 6c3c b5b2 063d 2510 e7bc
000002e0: f724 253d 0a8c c73c f213 a7bc d215 ae3c
000002f0: 41d0 e83c c08c 48bb 0a85 49b9 da45 3c3d
00000300: 0958 773c 0d59 d2bc 57be e3bc eacc e6bc
00000310: c350 333d fc4a 3b3b b31a 2c3d 9259 003d
00000320: 47bf 353d 894e 9a3c af56 f4bb 546b 243d
00000330: 88fc bf3c 02f1 233d 3c32 3c3d b594 cbbb
00000340: f9e0 0cbd 1695 053d aeb2 89bc 50d2 8a3c
00000350: 8a75 8e3c 8808 bcbc a968 e93c 4a38 823c
00000360: 78cb d93c 73b0 0b3b 5995 8fbc 1ca2 1abd
00000370: 1e3b 1f3d 9cf5 b1bc f674 e9bc f4a4 dc3c
00000380: a90e 493d 2195 113d e23a 94bc d505 e6bc
00000390: 1ef5 03bd 7475 dd3c 5915 c6bc 6789 94bc
000003a0: e44e 87bc 3cc0 653c d6e8 f63b 6e4c 13bd
000003b0: 1c5c 02bd 8b53 e8bc 4185 f7bc 5c97 123d
000003c0: 63eb b13c 8c6a 34bd 813f a7bb 4987 3abd
000003d0: 5370 fdbc d0b3 183c b207 633c fc17 f13c
000003e0: b76d 09bd 1eaf 0a3c 437a d73c b424 bd3c
000003f0: 2fa9 e13c 9688 3d3c 3406 08bc 4d8c 1b3a

fc1.bias f4 [128]
0.05869543 -0.083055146 -0.01719023 0.051747333 0.13370287 0.099437945 -0.03936692 0.15876783
0.14196064 0.08919753 -0.034979153 -0.07952992 0.12784211 0.053870615 0.08733154 -0.13238429
0.05731091 -0.039463256 0.11976935 -0.030763187 -0.011243931 -0.061114315 0.05988945 -0.029402005
0.03606635 0.07446047 -0.037124086 0.053264555 0.07640281 -0.041124992 -0.058454245 0.1908551
0.06687693 -0.036590286 0.11549072 0.0059682056 -0.019193158 0.09194717 0.05206036 0.08237277
-0.07847482 0.11808824 0.08471695 -0.098844394 0.02265449 0.07946313 0.07332717 0.08899849
-0.016058825 0.10532087 0.03647228 0.036115933 -0.06020188 -0.02834745 0.13308476 0.09254012
0.03435235 0.054764666 0.06829274 -0.013348882 -0.08093836 0.23316357 0.19045754 0.14716929
0.15186156 0.15674806 0.17241912 0.12732904 -0.041391958 0.14216347 -0.068504766 -0.052157573
0.12469699 -0.10903677 0.12513979 0.02949148 0.10591668 -0.02133688 -0.058460373 0.05066542
-0.10263059 0.14949074 0.18290105 0.13316627 0.10321639 -0.03324565 0.08666224 0.08882893
-0.020335743 0.04467287 0.001747511 0.1382911 0.035285182 0.120754905 0.1210559 -0.078264974
0.08820125 -0.04120786 0.09695827 -0.04833074 0.15092471 0.13011238 0.12257555 -0.124533854
0.1595246 0.13938951 0.16911538 0.019245928 -0.052501924 -0.029126573 0.09695025 0.055436097
0.09597355 0.06575293 0.07246212 -0.062913164 -0.06506835 0.13870998 0.14262801 0.037649143
0.095460236 0.08228463 -0.01661254 -0.065568134 0.069444396 -0.13305917 0.10196872 0.13094112
00000000: 9f6a 703d d118 aabd 86d2 8cbc 03f5 533d
00000010: 68e9 083e 1fa6 cb3d 353f 21bd 0994 223e
00000020: 215e 113e 32ad b63d 4d46 0fbd 95e0 a2bd
00000030: 0be9 023e 6fa7 5c3d e1da b23d bf8f 07be
00000040: d8be 6a3d 39a4 21bd a249 f53d 1403 fcbc
00000050: 7738 38bc 0153 7abd a44e 753d 79dc f0bc
00000060: 4fba 133d bb7e 983d 6d0f 18bd ef2b 5a3d
00000070: 1479 9c3d ae72 28bd b86d 6fbd 856f 433e
00000080: c6f6 883d b2df 15bd 6686 ec3d f090 c33b
00000090: f83a 9dbc cc4e bc3d 3e3d 553d 0eb3 a83d
000000a0: 68b7 a0bd 3fd8 f13d 1580 ad3d ee6e cabd
000000b0: e995 b93c 91bd a23d 8e2c 963d d744 b63d
000000c0: cc8d 83bc 78b2 d73d f563 153d 4dee 133d
000000d0: 3f96 76bd e938 e8bc 5f47 083e ad85 bd3d
000000e0: 0db5 0c3d ea50 603d 10dd 8b3d 45b5 5abc
000000f0: 03c3 a5bd 6ec2 6e3e 4d07 433e 8cb3 163e
00000100: 9981 1b3e 9082 203e a38e 303e 8b62 023e
00000110: 9d8a 29bd 4d93 113e 3a4c 8cbd 2ea3 55bd
00000120: 2361 ff3d ac4e dfbd a524 003e 1e98 f13c
00000130: d8ea d83d aeca aebc 2574 6fbd 8b86 4f3d
00000140: fd2f d2bd 1a14 193e 6a4a 3b3e bd5c 083e
00000150: 1d63 d33d 972c 08bd f97b b13d f1eb b53d
00000160: 2597 a6bc e6fa 363d bd0c e53a 2f9c 0d3e
00000170: 3287 103d 594e f73d 28ec f73d 6349 a0bd
00000180: dba2 b43d 93c9 28bd 0f92 c63d 74f6 45bd
00000190: 028c 1a3e 2e3c 053e e408 fb3d 9b0b ffbd
000001a0: 6b5a 233e 20bc 0e3e 952c 2d3e a3a9 9d3c
000001b0: 420c 57bd da9a eebc da8d c63d f610 633d
000001c0: c88d c43d 79a9 863d 0567 943d 9ed8 80bd
000001d0: 8e42 85bd fd09 0e3e 140d 123e fd35 1a3d
000001e0: a880 c33d d884 a83d 0617 88bc 9648 86bd
000001f0: dd38 8e3d aa40 08be fad4 d03d 6e15 063e

fc2.weight f4 [32, 128]
-0.05721897 0.0267563 0.09386506 -0.01776331 -0.05888274 -0.029506274 -0.06820208 -0.06833593
-0.009408773 0.090698704 -0.064882345 0.04965674 -0.063024424 0.06943576 -0.07576543 0.06521016
-0.034475397 0.03133878 0.014630071 -0.018532349 0.071747094 -0.045413256 -0.047321763 0.01970098
-0.017075725 -0.0633383 0.06625158 -0.062301215 -0.06792955 -0.0986227 -0.023872279 -0.08287369
0.020543717 0.069844484 -0.04411178 -0.02188832 0.12808879 0.027867813 0.011535217 0.055770792
-0.012505477 0.013918966 0.03709885 -0.02213248 -0.058746696 0.054164805 0.035625044 0.058011286
0.03401271 -0.009114857 0.08480992 0.05741457 -0.021987703 0.029723264 0.044719856 0.044736646
0.035701048 0.076271154 -0.083943024 0.033308752 -0.017638508 -0.13957497 -0.045076754 -0.06389182
-0.07053064 -0.07024144 -0.014473359 0.11138397 0.051654674 -0.012439437 0.013703462 -0.05851195
-0.056409903 -0.034115605 -0.053687073 0.08125912 -0.037844475 0.049092375 0.01675839 0.07989172
0.06809123 0.015907481 0.02029194 0.020568127 0.05023777 -0.065967545 0.06911889 -0.03800576
-0.033859555 0.052634634 -0.009980093 -0.029936438 0.047754396 0.11152999 0.083856985 0.049410447
0.031633608 -0.005363726 0.13792548 0.062282983 0.026701523 -0.066382 -0.06843798 0.048729137
-0.07148729 -0.038390983 0.03567262 -0.0018950303 -0.0029168907 -0.043187156 0.044187035 0.04972174
-0.07550606 -0.023276718 -0.051251028 -0.08044972 -0.008005494 -0.021622777 -0.008006089 0.015193321
0.08976221 0.032531198 -0.031652346 0.015721763 -2.6091888e-05 0.08663872 0.04501463 0.105721116
0.06352051 0.096453354 -0.07252738 -0.021913344 -0.08264557 0.04014625 -0.065742515 -0.054928828
-0.0014365221 -0.038836688 -0.05286451 -0.00030106548 0.046655223 -0.013738444 -0.037137866 0.037585285
-0.023631016 -0.057421092 0.021090196 0.038769387 0.06292906 0.02222009 0.066387676 -0.073720425
-0.048574734 0.025167221 0.044668283 -0.04178299 -0.08309753 0.06820721 -0.028955525 0.039412607
-0.07513746 -0.0007036401 -0.0624591 0.14916933 -0.050497364 -0.1272249 -0.018097272 -0.10500953
-0.067770645 0.074684195 -0.024572385 0.050997853 -0.0321418 -0.10427488 -0.020630235 -0.08568042
-0.028021637 0.022189187 0.015974753 -0.049394995 -0.015082755 -0.058553018 0.0837273 0.049050998
0.015827069 0.003970567 -0.05249285 0.028394995 -0.02887859 0.13538642 0.13681139 0.11885473
0.22465163 0.0455239 0.128816 -0.093335025 0.07878681 0.117982104 0.09325839 -0.03800144
-0.015846683 0.091104895 0.09003149 0.0063945265 0.079477295 -0.039567344 -0.0031291044 0.034296118
0.0021318735 0.018095158 0.10035345 0.045555245 -0.00020974535 0.06631322 -0.14670318 -0.06388721
0.07704272 -0.06325332 -0.015126757 0.015025646 -0.009649299 0.04709157 0.07064651 0.03583225
-0.0047200224 -0.014118179 -0.20320036 -0.064952835 -0.025717646 0.013788912 -0.004792985 0.0131190615
0.026239948 0.060735952 0.12912282 -0.07994634 -0.0077890395 0.06980205 -0.15977012 0.06733303
-0.013385065 -0.062049966 -0.004412237 -0.034550175 -0.0063174707 -0.048219007 0.058498304 0.06818327
-0.072514996 -0.066149995 -0.0367053 -0.003101907 -0.004736361 0.08841269 -0.0024061077 0.09831008
00000000: 705e 6abd 0730 db3c 533c c03d 5c84 91bc
00000010: 072f 71bd 24b7 f1bc 88ad 8bbd b5f3 8bbd
00000020: 4127 1abc 3ec0 b93d 09e1 84bd de64 4b3d
00000030: f312 81bd 5634 8e3d e82a 9bbd e88c 853d
00000040: 1336 0dbd 185d 003d f7b2 6f3c 27d1 97bc
00000050: 24f0 923d 4003 3abd 77d4 41bd f363 a13c
00000060: 64e2 8bbc 83b7 81bd e9ae 873d 8f2f 7fbd
00000070: a61e 8bbd b3fa c9bd cc8f c3bc aeb9 a9bd
00000080: 4c4b a83c a00a 8f3d 8eae 34bd 224f b3bc
00000090: b529 033e 0a4b e43c 35fe 3c3c ea6f 643d
000000a0: c6e3 4cbc 600c 643c f7f4 173d 2d4f b5bc
000000b0: 60a0 70bd eadb 5d3d 91eb 113d 3e9d 6d3d
000000c0: e950 0b3d 7b56 15bc d3b0 ad3d 8a2b 6b3d
000000d0: 8e1f b4bc 347e f33c 2b2c 373d c63d 373d
000000e0: 433b 123d 0d34 9c3d 52ea abbd c26e 083d
000000f0: a27e 90bc beec 0ebe 67a2 38bd b7d9 82bd
00000100: 5e72 90bd beda 8fbd ab21 6dbc 471d e43d
00000110: da93 533d c8ce 4bbc 7c84 603c 3aaa 6fbd
00000120: 120e 67bd cebc 0bbd fae6 5bbd 2e6b a63d
00000130: cf02 1bbd 1615 493d e448 893c 459e a33d
00000140: 6a73 8b3d 6850 823c 483b a63c 7d7e a83c
00000150: 1fc6 4d3d fe19 87bd 348e 8d3d eeab 1bbd
00000160: 51b0 0abd 6a97 573d 8b83 23bc 433d f5bc
00000170: 1d9a 433d d669 e43d 36bd ab3d 9c62 4a3d
00000180: 3e92 013d 32c2 afbb 563c 0d3e 711c 7f3d
00000190: 27bd da3c 49f3 87bd 3629 8cbd 3498 473d
000001a0: ee67 92bd dd3f 1dbd 741d 123d aa62 f8ba
000001b0: 4e29 3fbb 04e5 30bd 77fd 343d 06a9 4b3d
000001c0: eca2 9abd d1ae bebc 99ec 51bd d3c2 a4bd
000001d0: 7a29 03bc 4022 b1bc f92b 03bc 68ed 783c
000001e0: 40d5 b73d 6f3f 053d e4a5 01bd edca 803c
000001f0: e7df dab7 a46f b13d 4361 383d 5084 d83d
00000200: 0b17 823d 5689 c53d 3c89 94bd 9d83 b3bc
00000210: 1542 a9bd 6570 243d 03a4 86bd 0dfd 60bd
00000220: af49 bcba 3813 1fbd 7588 58bd 53d8 9db9
00000230: 8c19 3f3d 3617 61bc e01d 18bd 07f3 193d
00000240: d595 c1bc 6132 6bbd 59c5 ac3c a6cc 1e3d
00000250: f3e0 803d e806 b63c 43f6 873d bcfa 96bd
00000260: 4df6 46bd 7d2b ce3c 17f6 363d a424 2bbd
00000270: 0a2f aabd 39b0 8b3d 2334 edbc 1d6f 213d
00000280: abe1 99bd 7d74 38ba 1dd5 7fbd d8bf 183e
00000290: 53d6 4ebd 3f47 02be bb40 94bc 3d0f d7bd
000002a0: 56cb 8abd 07f4 983d 074c c9bc 20e3 503d
000002b0: 1fa7 03bd 118e d5bd bd00 a9bc 3779 afbd
000002c0: a28d e5bc 19c6 b53c 7cdd 823c 6852 4abd
000002d0: a91d 77bc 4ad5 6fbd 3879 ab3d b3e9 483d
000002e0: c5a7 813c 881b 823b be02 57bd 9f9c e83c
000002f0: cb92 ecbc bda2 0a3e 4918 0c3e 1c6a f33d
00000300: 140b 663e 4577 3a3d 57e8 033e 6f26 bfbd
00000310: fb5a a13d 9aa0 f13d 41fe be3d 66a7 1bbd
00000320: e7d0 81bc 3495 ba3d 6e62 b83d 2d89 d13b
00000330: fec4 a23d 5e11 22bd a911 4dbb 167a 0c3d
00000340: e7b6 0b3b 4c3c 943c 1c86 cd3d 2398 3a3d
00000350: 17ef 5bb9 3acf 873d 5c39 16be 4cd7 82bd
00000360: 93c8 9d3d f58a 81bd 38d6 77bc 212e 763c
00000370: 1818 1ebc 17e3 403d 1eaf 903d d6c4 123d
00000380: 6baa 9abb ef4f 67bc c113 50be fe05 85bd
00000390: d0ad d2bc e4ea 613c 790e 9dbb 55f1 563c
000003a0: 29f5 d63c 43c6 783d c638 043e e8ba a3bd
000003b0: 333b ffbb 61f4 8e3d c79a 23be e6e5 893d
000003c0: 084d 5bbc 1b28 7ebd 8794 90bb 7c84 0dbd
000003d0: c902 cfbb 4b81 45bd eb9b 6f3d aca3 8b3d
000003e0: be82 94bd a679 87bd 4c58 16bd 5d49 4bbb
000003f0: 7a33 9bbb b611 b53d caaf 1dbb cc56 c93d

fc2.bias f4 [32]
-0.044463124 0.07866066 0.015958473 -0.054222785 -0.034333106 0.00277856 0.08257725 -0.014727607
-0.045035046 0.0860891 0.06736859 0.047229387 -0.08640835 0.087048225 -0.06813497 0.08169595
-0.014296263 -0.041293774 0.03549908 -0.019850768 0.066433065 0.0028615147 -0.012865432 0.03282643
-0.05110403 0.043774 0.015574798 0.075177096 -0.063871525 -0.061050624 0.060189925 0.079924144
00000000: f71e 36bd d718 a13d 58bb 823c b618 5ebd
00000010: dfa0 0cbd 8018 363b 431e a93d 104c 71bc
00000020: ab76 38bd 7b4f b03d 8bf8 893d 9a73 413d
00000030: dcf6 b0bd 5746 b23d 598a 8bbd 3550 a73d
00000040: e03a 6abc a923 29bd 7c67 113d 149e a2bc
00000050: 0f0e 883d 4088 3b3b 88c9 52bc 0275 063d
00000060: 7652 51bd 5e4c 333d 702d 7f3c 73f6 993d
00000070: 13cf 82bd 3810 7abd b689 763d 45af a33d
