archive/eeg_embeddings/saved_models/model_2_3dec.pth (torch, 293822 bytes, 10 tensors)

conv_layers.0.weight f4 [16, 1, 3]
0	0x3cc1c3ce	0.023652937
1	0xbda96b47	-0.08272415
2	0x3f06f3f3	0.52715987
3	0xbe8a62d4	-0.27028525
4	0x3e87c111	0.26514485
5	0xbda6bfe4	-0.08142069
6	0xbed05fc6	-0.4069807
7	0xbdd8d3a5	-0.10587243
8	0x3d5804ce	0.052738957
9	0x3f14812b	0.58009595
10	0xbd9d2ca0	-0.07674527
11	0xbdfcc518	-0.1234228
12	0x3ee15128	0.4400723
13	0xbec4ce81	-0.384388
14	0x3ec603a0	0.3867464
15	0x3dec0e0b	0.11526116
16	0x3e989a4a	0.29805213
17	0xbe839a91	-0.25703862
18	0x3ede5e4e	0.43431324
19	0x3f111565	0.5667327
20	0x3e89ea65	0.2693664
21	0xbe9431f3	-0.28944358
22	0x3d006473	0.031345796
23	0x3e97dc6a	0.2966035
24	0x3e905a4b	0.28193888
25	0x3eb0dc05	0.34542862
26	0xbe2172b7	-0.15766416
27	0x3e584be4	0.211227
28	0x3e287447	0.16450606
29	0x3d911253	0.07083573
30	0xbe41c140	-0.18921375
31	0x3dc71f8f	0.09722816
32	0xbeeede88	-0.46654153
33	0x3e84aa2b	0.25911078
34	0x3d9aa0ed	0.075502254
35	0x3e910c43	0.28329667
36	0xbdbc639f	-0.09198689
37	0x3e09b2f6	0.13447174
38	0xbe7a5ba4	-0.2444902
39	0xbd132790	-0.0359264
40	0x3ecadc0a	0.39621
41	0xbe49f740	-0.19723225
42	0xbe651563	-0.2237144
43	0x3ee80ee9	0.45323876
44	0xbf0e64ee	-0.55622756
45	0x3eee432a	0.46535617
46	0xbf05e309	-0.52299553
47	0xbe59e734	-0.21279603

conv_layers.0.bias f4 [16]
0	0xbe951b74	-0.29122508
1	0x3ed5e040	0.41772652
2	0xbf16b825	-0.5887473
3	0x3e535a7e	0.20639989
4	0xbebbe170	-0.36695433
5	0xbf27866a	-0.65439475
6	0xbe798112	-0.24365643
7	0x3ed1f1cd	0.41004792
8	0x3e161d1d	0.14659543
9	0x3c20cafd	0.009814021
10	0xbf00e592	-0.50350296
11	0xbe76927e	-0.2407932
12	0xbf07ab9c	-0.5299623
13	0x3f16c80c	0.58899
14	0xbe131db0	-0.14366794
15	0x3d3a2470	0.045444906

conv_layers.1.weight f4 [32, 16, 5]
0	0xbdf4fbb7	-0.11962073
1	0x3cd4194c	0.025890969
2	0xbd8fa0fa	-0.07013126
3	0x3db1b5b9	0.08677239
4	0x3cc47e1e	0.023985919
5	0x3dceb495	0.10093037
6	0x3dae54c0	0.085122585
7	0x3db80953	0.089861535
8	0x3d645308	0.055743247
9	0xbda4d876	-0.08049099
10	0x3c8029b3	0.015644884
11	0xbd1d5c45	-0.038418073
12	0xbdae8f6c	-0.08523449
13	0x3bcc0129	0.0062257242
14	0xbd6db302	-0.058032043
15	0x3d688fa5	0.056777615
16	0xbd9c8f7f	-0.07644557
17	0xbdbe355f	-0.092875235
18	0x3d02ab60	0.031901717
19	0x388d6ee1	6.744057e-05
20	0x3b5c4764	0.0033611888
21	0x3d89ea54	0.06734148
22	0x3d891a78	0.06694502
23	0xbd4b3d88	-0.049619228
24	0x3d5e5e94	0.054289415
25	0x3c037f68	0.0080259815
26	0xbd1d1dc6	-0.038358472
27	0x3d82cb32	0.06386413
28	0x3d89b8b7	0.06724685
29	0x3d0d64ea	0.034520067
30	0xbd49e961	-0.049294833
31	0x3dd06e62	0.10177304
32	0x3d5eb240	0.05436921
33	0xbdc57401	-0.096412666
34	0x3dcf5767	0.101240925
35	0xbda18b47	-0.07887893
36	0xbd4edef8	-0.05050561
37	0x3dbebfb2	0.09313907
38	0x3d85889d	0.065201975
39	0xbd55e3a1	-0.052219037
40	0x3dad274d	0.08454762
41	0xbde0ae85	-0.10970787
42	0x3d32c9d7	0.04364952
43	0xbda3bed9	-0.07995386
44	0xbd38d62a	-0.045126118
45	0x3bec6bcc	0.007214999
46	0xbd027b40	-0.03185582
47	0x3da0a969	0.078448124
48	0xbcea1839	-0.028576003
49	0x3d989476	0.07450192
50	0xbd45edea	-0.048322596
51	0x3da31091	0.07962144
52	0x3c72392c	0.014784139
53	0x3dd5a35e	0.104315504
54	0xbc23272d	-0.009958071
55	0x3c9854f8	0.018595204
56	0x3d08ea9d	0.03342687
57	0xbddad72a	-0.106855705
58	0x3dbae5fe	0.09125899
59	0x3c3b97de	0.011449782
60	0xbda4f516	-0.08054559
61	0xbcc73df1	-0.024321528
62	0x3d77d820	0.060508847
63	0x3ddc0a9c	0.10744211
64	0x3d9ae601	0.07563401
65	0xbbf5b8c6	-0.0074988334
66	0xbddef113	-0.10885825
67	0xbd036d8a	-0.032086886
68	0xbdcf1bdc	-0.10112736
69	0xbc298114	-0.010345716
70	0x3db54f5d	0.08853028
71	0x3cd9e913	0.026600396
72	0xbc8785ea	-0.016543347
73	0x3df9b7ba	0.12193246
74	0x3c423d01	0.011855365
75	0xbcf59153	-0.029976523
76	0xbdbc8375	-0.09204761
77	0x3cdc0e69	0.02686234
78	0xbd35e0b5	-0.04440375
79	0x3d142e21	0.036176804
80	0x3ceec964	0.029148765
81	0x3acb8e5d	0.0015530098
82	0xbd820bec	-0.0634993
83	0x3bbf0403	0.0058293357
84	0x3d914cad	0.07094703
85	0xbcee2337	-0.029069526
86	0x3d8187ac	0.063247055
87	0x3d315c81	0.04330111
88	0xbdc5e341	-0.09662486
89	0x3dc479b7	0.09593528
90	0xbdbe8fd8	-0.0930478
91	0xbdd5de81	-0.1044283
92	0xbd4810ca	-0.048844136
93	0x3d31d9a7	0.04342046
94	0xbdce5988	-0.100756705
95	0xbd994946	-0.07484679
96	0xbd730a27	-0.059335854
97	0xbbe09dc2	-0.0068547437
98	0xbda17287	-0.078831725
99	0x3d271b77	0.040797677
100	0xbd52abde	-0.051433437
101	0xbd24d5a6	-0.040242814
102	0xbcd2ef67	-0.025748922
103	0x3dbf1d2e	0.093317375
104	0x3db59b78	0.08867544
105	0xbd626497	-0.05527171
106	0xbdecdcf8	-0.11565584
107	0xbd6b395e	-0.057427756
108	0xbccf2963	-0.02528829
109	0xbb6db6f9	-0.003627239
110	0xbd0c0f4b	-0.034194272
111	0x3c56a704	0.013101343
112	0x3d0f955e	0.035054557
113	0xbd902372	-0.07038011
114	0x3d9af243	0.07565739
115	0xbbb3270f	-0.0054673026
116	0x3dbb4156	0.09143321
117	0x3db452c7	0.08804851
118	0xbd75ee41	-0.06004167
119	0x3d499051	0.049209896
120	0x3c9ce401	0.01915169
121	0x3d6d39bc	0.057916388
122	0x3c07401d	0.008255032
123	0x3c87e737	0.016589744
124	0xbda085ed	-0.07838044
125	0xbdb100de	-0.086427435
126	0x3d773b5e	0.06035935
127	0x3b759cd1	0.0037477503
128	0x3da99d55	0.08281962
129	0xbcfd2f2a	-0.030906279
130	0xbded14bc	-0.115762204
131	0x3d8f0bcc	0.06984672
132	0x3dc2ec81	0.09517766
133	0xbd8275da	-0.06370135
134	0xbd2c2551	-0.042027775
135	0x3d1d2fba	0.038375594
136	0xbc6fb69c	-0.01463094
137	0xbd2469a6	-0.040139817
138	0x3d35d39f	0.04439127
139	0xbdd290d3	-0.10281529
140	0xbd78426e	-0.060610227
141	0x3d887f79	0.066649385
142	0x3dd20b4a	0.102560595
143	0xbdbe8280	-0.09302235
144	0x3d85b65d	0.06528924
145	0x3d2386de	0.03992354
146	0x3dc6845b	0.096932136
147	0x3c0852b9	0.008320504
148	0xbd9056c2	-0.07047798
149	0xbd25a6ac	-0.040442154
150	0xbcdfd9b0	-0.027325481
151	0xbd8d3c47	-0.068962626
152	0x3cf14b3f	0.029454825
153	0x3d29886a	0.04138986
154	0x3da7cad6	0.08192985
155	0xbc958a73	-0.018254494
156	0x3dc2d5f3	0.09513464
157	0x3da0b89b	0.07847711
158	0xbd4e6062	-0.050384887
159	0xbd8023c8	-0.06256825
160	0x3de185a1	0.11011816
161	0x3d85e41d	0.0653765
162	0xbb6101bc	-0.003433331
163	0xbdaf2120	-0.0855124
164	0x3dc66526	0.09687261
165	0x3d96063d	0.073254086
166	0xbb9383ea	-0.0045018094
167	0x3db49c81	0.08818913
168	0xbd1e305b	-0.038620334
169	0x3d55e46e	0.0522198
170	0x3d4e5c37	0.05038091
171	0xbce677a2	-0.028133217
172	0xbd91e0e6	-0.07122974
173	0xbd25f6f5	-0.04051872
174	0x3d8740cc	0.06604156
175	0xbd5e2fa4	-0.054244652
176	0x3db79f75	0.08965961
177	0xbd96bb3b	-0.0735993
178	0xbda922ef	-0.08258616
179	0xbc7e7610	-0.015531078
180	0x3d3ea8ae	0.046547584
181	0xbd7559ea	-0.0599002
182	0x3dd88b5e	0.10573457
183	0x3c9fcbc1	0.019506337
184	0xbdbe053a	-0.09278341
185	0xbd38ac42	-0.045086153
186	0xbd17f32c	-0.03709714
187	0x3cc76786	0.024341356
188	0xbdb09999	-0.086230464
189	0xbd859725	-0.06522969
190	0xbdb26875	-0.0871133
191	0xbd13a50b	-0.03604607
192	0xbc546958	-0.012964569
193	0x3d8623b4	0.065497786
194	0xbd8536a6	-0.06504564
195	0xbe05eed6	-0.1307939
196	0x3d526de1	0.05137432
197	0x3d3d73a9	0.04625288
198	0x3d027fb5	0.031860072
199	0xbc85b6ba	-0.016322482
200	0xbd936896	-0.071976826
201	0x3cbbf5a8	0.022944286
202	0xbd87b3af	-0.06626069
203	0x3b8573e5	0.0040726536
204	0x3dd166f5	0.102247156
205	0xbc94a720	-0.018146098
206	0x3dbb574d	0.09147511
207	0x3db2326d	0.08701024
208	0xbd602ab1	-0.054728214
209	0x3d68012c	0.056641743
210	0xbdc17fdc	-0.09448215
211	0xbd2e6f9e	-0.042586915
212	0xbd10b8ff	-0.035332676
213	0x3de7201d	0.11285422
214	0x3d493933	0.049126815
215	0xbcee26a7	-0.029071165
216	0x3df778b2	0.12083568
217	0xbd09b499	-0.033619497
218	0xbd171686	-0.036886714
219	0xbdd75ed1	-0.10516132
220	0xbdd34388	-0.10315615
221	0xbaca035a	-0.0015412376
222	0xbc84892f	-0.016178695
223	0x3d03f247	0.032213476
224	0x3c82be29	0.015959816
225	0xbd8cafee	-0.068694934
226	0x3ced3916	0.028957885
227	0x3ddfb0fd	0.1092243
228	0xbd9d52be	-0.076817974
229	0x3dd7e377	0.10541432
230	0x3de6e970	0.112749934
231	0x3d942299	0.072331615
232	0xbd6772ce	-0.05650597
233	0x3d8a3740	0.06748819
234	0x3da132a4	0.07870987
235	0x3cc2103c	0.023689382
236	0x3d92a344	0.07160047
237	0x3ac84f37	0.0015282397
238	0x3dc4f808	0.09617621
239	0x3d47d36d	0.048785616
240	0xbd921cee	-0.07134424
241	0xbc030ddf	-0.007998913
242	0xbdbbe849	-0.09175164
243	0xbdbf3d74	-0.09337893
244	0x3dd14a6d	0.10219274
245	0xbd81ff67	-0.06347542
246	0x3cfd09bf	0.030888436
247	0x3da438d0	0.080186486
248	0xbdd612c3	-0.10452797
249	0xbb8e98c9	-0.0043517095
250	0xbd03ee23	-0.032209527
251	0x3ca6c894	0.020359315
252	0xbd931315	-0.07181374
253	0x3d9d245a	0.07672949
254	0x3d95c157	0.07312267
255	0xbd9c7b30	-0.07640684

conv_layers.1.bias f4 [32]
0	0xbdc0a31c	-0.09406111
1	0x3da04d9f	0.07827305
2	0x3deabf35	0.11462251
3	0x3d8fb64f	0.070171945
4	0x3e76d14d	0.2410328
5	0xbd9fa2b5	-0.07794706
6	0xbe147fcc	-0.14501876
7	0xbe27c5d1	-0.16384055
8	0xbdaf291d	-0.085527636
9	0x3dc3336d	0.09531293
10	0x3d00bbfb	0.031429272
11	0x3d0b8f9b	0.0340725
12	0xbe038df7	-0.12847124
13	0xbdd3cfac	-0.10342345
14	0x3d233db2	0.03985376
15	0xbd956e2d	-0.07296405
16	0xbdbe99f7	-0.0930671
17	0x3d1ca4df	0.03824317
18	0xbd8e1292	-0.06937136
19	0x3d3c0cc1	0.0459106
20	0xbe08f3ba	-0.13374224
21	0xbed552ca	-0.41664726
22	0x3e48d603	0.19612889
23	0xbc212f40	-0.009837925
24	0xbdf05911	-0.11735738
25	0x3cc9b7c8	0.024623767
26	0x3dfd5229	0.123691864
27	0x3e9ca1de	0.30592245
28	0x3e3308f8	0.1748389
29	0x3c3fc9fd	0.011705873
30	0x3c820d90	0.015875608
31	0xbdb18c3b	-0.08669325

conv_layers.2.weight f4 [16, 32, 3]
0	0xbda5ad80	-0.08089733
1	0xbba2c221	-0.0049669896
2	0x3d604f91	0.05476338
3	0x3db04d8f	0.08608543
4	0xbd8aea40	-0.06782961
5	0xbe0808d2	-0.13284615
6	0x3d0ea38b	0.034823935
7	0x3d5d2451	0.053989712
8	0xbd81f1cf	-0.063449495
9	0x397625a4	0.0002347441
10	0x3da47dcb	0.080318056
11	0xbcd5d5f9	-0.026103007
12	0x3ce915ad	0.028452719
13	0x3c6bc9f8	0.014391415
14	0xbdc3b388	-0.09555727
15	0x3cf0d241	0.029397132
16	0xbbe49743	-0.0069760396
17	0xbd9f5df9	-0.07781596
18	0xbdac275c	-0.08405945
19	0x3cc26ec3	0.023734456
20	0xbca8c29f	-0.020600615
21	0xbdd40ee0	-0.103544
22	0x3cfb7391	0.030694755
23	0xbd562aa8	-0.052286774
24	0xbd2506ad	-0.04028957
25	0x3d9656f3	0.07340803
26	0xbd27457f	-0.04083776
27	0xbb475549	-0.0030415824
28	0xbdd7a8f1	-0.1053027
29	0x3d71432b	0.058901947
30	0x3ccd5c36	0.025068384
31	0x3d165ed2	0.03671152
32	0x3ce4dfc3	0.02793873
33	0x3d1bf786	0.038077854
34	0xbd57f9ce	-0.052728467
35	0x3dbb6705	0.09150509
36	0x3d70e688	0.0588136
37	0xbcb6afd5	-0.02230064
38	0xbd9d3371	-0.07675827
39	0xbd8abe2f	-0.06774556
40	0x3d8137b3	0.06309452
41	0xbd3dd0e2	-0.046341784
42	0xbd6113bd	-0.054950465
43	0xbd961897	-0.07328909
44	0xbc8d6518	-0.01726012
45	0xbd8b384d	-0.06797848
46	0x3dae3745	0.085066356
47	0xbba33a8c	-0.0049813446
48	0x3c513c80	0.012770772
49	0xbb595462	-0.0033161868
50	0xbdbc1f97	-0.09185713
51	0xbdfc92e4	-0.12332705
52	0x3d922240	0.07135439
53	0xbdcb516b	-0.099276386
54	0xbcb09a78	-0.021558031
55	0xbc6a7929	-0.014311113
56	0xbd5d2712	-0.05399234
57	0x3dc0a9d1	0.0940739
58	0xbd3f2dcd	-0.04667454
59	0xbb794b0d	-0.0038039119
60	0xbdc00399	-0.09375686
61	0xbd9b36c4	-0.07578805
62	0x3d109e49	0.035307202
63	0xbd91d48a	-0.07120617
64	0xbd81737c	-0.06320855
65	0xbd8c52f7	-0.06851762
66	0xbd74adf4	-0.059736207
67	0x3dba2da4	0.090907365
68	0xbd24eecb	-0.040266793
69	0x3d861ad3	0.06548085
70	0xbdcd0f0e	-0.10012637
71	0xbda4a44f	-0.08039152
72	0xbd8167b6	-0.063186094
73	0xbd514b8c	-0.051097438
74	0x3da02850	0.07820189
75	0x3bb6dedf	0.0055807675
76	0xbdc368a8	-0.09541446
77	0xbc87f8c0	-0.016598105
78	0xbd8acf14	-0.06777778
79	0xbcfd8046	-0.030944955
80	0xbd8f6651	-0.07001937
81	0x3dafe4c9	0.08588559
82	0xbd727cea	-0.05920116
83	0x3baad837	0.005213763
84	0xbdb531a8	-0.08847362
85	0x3dcbda92	0.09953798
86	0x3bdc77f2	0.006728166
87	0x3da3e518	0.080026805
88	0xbd20f56b	-0.03929655
89	0xbae5394b	-0.0017488388
90	0xbd9ef98c	-0.07762441
91	0xbd933f27	-0.0718978
92	0xbd7d231e	-0.06180107
93	0xbd88ab12	-0.06673254
94	0x3dbad0dd	0.09121869
95	0x3d0aa5ba	0.033849455
96	0xbd02ad5f	-0.03190362
97	0x3db957f3	0.09049978
98	0x3ba2a7c7	0.0049638483
99	0xbbdea2ec	-0.006794324
100	0xbd4fe852	-0.050758667
101	0xbdca86d0	-0.09888995
102	0xbcf4bfae	-0.029876556
103	0xbdd6edb0	-0.10494554
104	0x3d56d7d0	0.05245191
105	0xbc88e1b4	-0.016709186
106	0xbda3b454	-0.07993379
107	0xbc537e93	-0.012908596
108	0xbd017528	-0.03160587
109	0x3da15cea	0.0787905
110	0xbb6c22c7	-0.003603147
111	0xbd95a8df	-0.073076
112	0x3c4d3757	0.012525401
113	0xbd7040a1	-0.058655385
114	0xbda3a05a	-0.07989569
115	0x3bd317ab	0.0064420304
116	0x3d4a1425	0.049335618
117	0xbd8ec06e	-0.06970297
118	0x3d812b4f	0.063070886
119	0xbdac4baf	-0.08412873
120	0x3d2de0e2	0.042450793
121	0x3dae33f0	0.08506
122	0xbd80c539	-0.06287617
123	0x3c41d0c7	0.011829562
124	0xbda1abbe	-0.07894085
125	0x3c519975	0.012792935
126	0xbcbfdc8a	-0.02342059
127	0xbc7e1d0e	-0.015509857
128	0x3d6dca9a	0.058054544
129	0x3da54f47	0.080717616
130	0x3d779fa3	0.060454976
131	0x3d036fe5	0.032089133
132	0xbc119882	-0.008886458
133	0x3daa83dd	0.08325932
134	0xb90fd46d	-0.00013716677
135	0x3d1ab575	0.037770707
136	0xbd9f33be	-0.07773541
137	0xbdadcfb1	-0.084868796
138	0xbdd30916	-0.103044674
139	0x3d4aab1f	0.0494796
140	0xbdb3eb77	-0.08785146
141	0xbd416a4b	-0.04722051
142	0x3d3821f2	0.044954248
143	0x3d42cb2a	0.047557034
144	0xbdb20620	-0.086925745
145	0xbd4c26d0	-0.049841702
146	0xbb16877c	-0.0022968939
147	0x3c19998d	0.009374988
148	0xbdb83723	-0.089948915
149	0x3da247f6	0.07923882
150	0x3da76ac4	0.08174661
151	0xbc8d7cb5	-0.017271379
152	0x3c360c62	0.011111351
153	0x3d778548	0.06042984
154	0xbd5abe7e	-0.053404324
155	0x3d6483ec	0.055789873
156	0x3d973947	0.07383972
157	0xbccd3da6	-0.02505381
158	0x3d740541	0.059575323
159	0xbd812eb1	-0.06307734
160	0x3d8cba0d	0.06871424
161	0x3d959def	0.07305514
162	0xbc747d9c	-0.014922526
163	0x3d9a6c6c	0.07540211
164	0xbdcbe7a4	-0.09956291
165	0x3d5255ff	0.051351544
166	0xbbac81fb	-0.0052645183
167	0x3b0ec8db	0.00217872
168	0xbd30d84e	-0.043175034
169	0x3bc6913d	0.006059794
170	0x3d8643bf	0.0655589
171	0x3db5f107	0.08883863
172	0xbd7755d8	-0.0603846
173	0xbd4a6489	-0.049412284
174	0xbdecc853	-0.11561646
175	0xbe00f688	-0.12594044
176	0xbdc1776a	-0.094466045
177	0xbd9ddd93	-0.077082776
178	0xbd079da9	-0.03310934
179	0xbd9725db	-0.07380267
180	0x3d443eae	0.04791134
181	0xbdd130cb	-0.10214385
182	0xbd8458a1	-0.06462217
183	0x3e9cb322	0.30605417
184	0x3c0c904c	0.008579325
185	0x3d8de9f2	0.06929387
186	0x3ce96043	0.028488284
187	0xbdb935d5	-0.09043471
188	0xbaa567c0	-0.0012619421
189	0xbd274bf6	-0.040843926
190	0xbde1dd84	-0.11028579
191	0xbdc4d8df	-0.096116774
192	0xbd904e00	-0.07046127
193	0xba7af3c8	-0.00095730694
194	0x3ce54dba	0.027991164
195	0x3c74744a	0.014920304
196	0x3d137d5f	0.036008235
197	0xbd82dd88	-0.0638991
198	0xbddeabcc	-0.108726114
199	0xbc1c99a0	-0.009558111
200	0xbd75d586	-0.060018085
201	0x3d875cb3	0.06609478
202	0xbbea3e00	-0.0071485043
203	0xbd83b2f3	-0.06430616
204	0xbd491790	-0.049094737
205	0xbac2cfa6	-0.001486291
206	0xbd3c6f2d	-0.046004463
207	0x3d2ade91	0.041716162
208	0xbd9db8f4	-0.07701293
209	0x3d6d7504	0.057972923
210	0x3c5f4cd1	0.013629154
211	0x3cc8de54	0.024520077
212	0x3ce314d5	0.027719894
213	0x3d2cbf3b	0.04217456
214	0x3d5df7f8	0.05419156
215	0xbc9ed503	-0.019388681
216	0xbd9254c5	-0.07145075
217	0x3d82fd9a	0.06396027
218	0x3d15eb77	0.03660151
219	0x3d6fa670	0.058508337
220	0xbd6a78fb	-0.057244282
221	0x3d6282a3	0.055300366
222	0xbd519210	-0.051164687
223	0x3d66896f	0.05628341
224	0xbdc55112	-0.096346036
225	0x3d9fb0de	0.077974066
226	0x3d95742c	0.07297549
227	0xbdbcd6a2	-0.092206255
228	0x3d7b4314	0.061343268
229	0xbdc3943d	-0.095497586
230	0xbd850d10	-0.06496632
231	0xbc8a3d62	-0.016874973
232	0xbd4cd921	-0.050011758
233	0xbd6c5d44	-0.057706133
234	0x3d8cbdc0	0.068721294
235	0xbdd0d6a9	-0.10197193
236	0x3c6f10f0	0.014591441
237	0xbb5fca7c	-0.003414779
238	0xbd98a69a	-0.07453652
239	0xbd8e7209	-0.06955344
240	0xbd949bdc	-0.0725629
241	0x3cb38d7f	0.021918057
242	0xbdb2a82a	-0.08723481
243	0x3c8d8b9c	0.017278485
244	0xbbd7ab43	-0.0065816953
245	0x3da95e81	0.08269978
246	0x3d53ad11	0.05167872
247	0xbd9e47a6	-0.077285096
248	0x3d7e8806	0.06214144
249	0x3d2e5a3f	0.042566534
250	0xbdc913b7	-0.098182134
251	0xbb3ef61f	-0.0029138399
252	0x3d18b676	0.037283383
253	0xbd6ef46e	-0.058338575
254	0xbc381e24	-0.011237655
255	0x3cd5d45c	0.026102237

conv_layers.2.bias f4 [16]
0	0xbd525e5d	-0.051359523
1	0x3e07d428	0.13264525
2	0x3d02ed78	0.03196475
3	0x3c60847e	0.013703464
4	0xbcb09b7e	-0.02155852
5	0x3d0af91b	0.03392897
6	0x3d65813a	0.056031443
7	0x3d8ae960	0.06782794
8	0x3bca2417	0.006168853
9	0xbd2a7741	-0.041617636
10	0x3cce33f0	0.02517125
11	0x3d704f3f	0.058669325
12	0x3b90d86e	0.0044203317
13	0x3d20de50	0.039274514
14	0xbd278ef8	-0.04090783
15	0xbcda15a0	-0.02662164

fc1.weight f4 [128, 500]
0	0xbe1210ba	-0.14264193
1	0xbe03e8f6	-0.12881836
2	0xbe823e3e	-0.25438112
3	0xbda3efbd	-0.08004711
4	0xbf82c68c	-1.0216842
5	0xbf87e814	-1.06177
6	0xbf888e48	-1.0668421
7	0xbf9063b2	-1.1280425
8	0xbf991e58	-1.1962385
9	0xbf986934	-1.1907105
10	0xbf949cc2	-1.1610339
11	0xbfa11ea8	-1.258748
12	0xbf972f8d	-1.1811386
13	0xbf895ad9	-1.073085
14	0xbf868cf0	-1.0511761
15	0xbf87f291	-1.06209
16	0xbf7b88de	-0.9825572
17	0xbf747e04	-0.95504785
18	0xbf5d2b76	-0.8639444
19	0xbf4d0645	-0.8008769
20	0xbf49a8dd	-0.7877329
21	0xbf3b2a92	-0.7311183
22	0xbde7d7b3	-0.11320438
23	0xbcee8c9f	-0.029119788
24	0xbd6b01e2	-0.057374842
25	0xbcd262c0	-0.025681853
26	0xbd6ffeef	-0.058592733
27	0xbacce539	-0.0015632279
28	0xbd9272f7	-0.07150834
29	0xbc1e4115	-0.009659071
30	0xbd3e1599	-0.046407316
31	0xba302fe8	-0.0006721006
32	0xbc495ef5	-0.012290706
33	0xbe24e1a6	-0.16101703
34	0xbdaa634b	-0.0831972
35	0xbd6a9bcc	-0.057277486
36	0xbd762a34	-0.06009884
37	0xbd5aa96f	-0.05338424
38	0xbe38ae93	-0.18035345
39	0xbe13e8ff	-0.1444435
40	0xbf8eaa2b	-1.1145681
41	0xbfa2bef6	-1.2714527
42	0xbdbeab06	-0.09309964
43	0xbdc34b11	-0.09535802
44	0xbccea587	-0.025225414
45	0xbd92d008	-0.07168585
46	0xbd9d8751	-0.07691825
47	0xbd27d48b	-0.04097418
48	0xbdb46376	-0.08808033
49	0xbd6a8384	-0.05725433
50	0xbcf6f36e	-0.030145373
51	0xbc5d368a	-0.013501773
52	0xbdccf31d	-0.10007308
53	0xbda1e903	-0.079057716
54	0xbd879e90	-0.0662204
55	0xbf8cc16d	-1.0996529
56	0xbf88196a	-1.0632756
57	0xbda571fd	-0.08078382
58	0xbdbf5fc8	-0.09344441
59	0xbcb38b45	-0.021916995
60	0xbc178c76	-0.009249797
61	0xbd910fc1	-0.07083083
62	0xbc6b220f	-0.014351382
63	0xbd84d29e	-0.064854845
64	0xbdbe2dd8	-0.09286088
65	0xbe03481a	-0.12820473
66	0xbf9371ee	-1.1519144
67	0xbf8eca97	-1.1155576
68	0xbd22c76b	-0.03974096
69	0xbde0866f	-0.10963141
70	0xbea3b0b1	-0.31970742
71	0xbf99ad48	-1.2006006
72	0xbf86465d	-1.0490223
73	0xbf94d67b	-1.1627954
74	0xbf8b6c77	-1.0892476
75	0xbf91b6b2	-1.1383879
76	0xbf8d7bdc	-1.1053424
77	0xbf8bd475	-1.0924212
78	0xbf9af7eb	-1.2106909
79	0xbf895d69	-1.0731632
80	0xbf8871e4	-1.0659757
81	0xbf8d8a59	-1.1057845
82	0xbf879050	-1.0590916
83	0xbf897ed0	-1.0741825
84	0xbf83292b	-1.0246938
85	0xbf8c382f	-1.0954646
86	0xbf8a42d4	-1.0801644
87	0xbf70bc74	-0.94037557
88	0xbf8b93b1	-1.0904447
89	0xbf87be5f	-1.0604972
90	0xbf8c95a3	-1.0983166
91	0xbf987153	-1.1909584
92	0xbf8c9390	-1.0982533
93	0xbf755d7c	-0.9584577
94	0xbf845ca1	-1.0340768
95	0xbf75fe7b	-0.9609143
96	0xbf831c74	-1.0243058
97	0xbf878123	-1.0586284
98	0xbf7fc575	-0.9991067
99	0xbf89ced9	-1.076625
100	0xbf8428f2	-1.0324996
101	0xbf8cbfe3	-1.0996059
102	0xbf803df3	-1.0018905
103	0xbf727a82	-0.9471818
104	0xbf51f314	-0.8201153
105	0xbf3525fc	-0.70761085
106	0xbf2374b1	-0.6384993
107	0xbf16774c	-0.5877578
108	0xbf535ff2	-0.82568276
109	0xbf76c43d	-0.96393186
110	0xbf559d4a	-0.8344313
111	0xbf543f44	-0.82909036
112	0xbf6f63a5	-0.9351142
113	0xbf7db989	-0.9911123
114	0xbf78af12	-0.97142136
115	0xbf8f61c7	-1.1201714
116	0xbf957060	-1.1674919
117	0xbf837da7	-1.0272721
118	0xbf78089b	-0.9688813
119	0xbf843711	-1.0329305
120	0xbf80b9fe	-1.005676
121	0xbf858b13	-1.0433067
122	0xbf82f246	-1.0230186
123	0xbf748f1b	-0.9553086
124	0xbf84a2c0	-1.0362167
125	0xbf8b037f	-1.0860442
126	0xbf8062f3	-1.0030197
127	0xbf854b52	-1.0413611
128	0xbf74f719	-0.9568954
129	0xbf771e31	-0.96530443
130	0xbf810e4f	-1.0082492
131	0xbf72c39b	-0.9482972
132	0xbf4db378	-0.8035197
133	0xbf61de0b	-0.88229436
134	0xbf6544ba	-0.89557993
135	0xbf77d2d2	-0.9680606
136	0xbf80007c	-1.0000148
137	0xbf6b8c54	-0.92011
138	0xbf7ac3f4	-0.9795525
139	0xbf8b473a	-1.0881112
140	0xbf835224	-1.0259442
141	0xbf8eceb9	-1.1156837
142	0xbf6d7b52	-0.92766297
143	0xbf5d8fa2	-0.8654729
144	0xbf6398fd	-0.88905317
145	0xbf74ed20	-0.95674324
146	0xbf85a000	-1.0439453
147	0xbf7aff8e	-0.98046196
148	0xbf7dc38d	-0.9912651
149	0xbf84157b	-1.0319055
150	0xbf7fea0c	-0.999665
151	0xbf8bb1ae	-1.0913599
152	0xbf862dcb	-1.0482725
153	0xbf837ad8	-1.0271864
154	0xbf7b4f6a	-0.9816805
155	0xbf854097	-1.0410336
156	0xbf866692	-1.0500052
157	0xbf61d38c	-0.8821342
158	0xbf44dbff	-0.7689819
159	0xbf404766	-0.75108945
160	0xbf630cb4	-0.8869126
161	0xbf6bd7d4	-0.921262
162	0xbf6036a2	-0.87583363
163	0xbf78ff4d	-0.9726456
164	0xbf74025b	-0.95316094
165	0xbf7cdea2	-0.9877721
166	0xbf828984	-1.0198216
167	0xbf68cc07	-0.9093632
168	0xbf63ab6a	-0.8893343
169	0xbf85f03d	-1.046394
170	0xbf84b23d	-1.0366894
171	0xbf636cf7	-0.8883814
172	0xbf6d7330	-0.9275389
173	0xbf6dcfbd	-0.9289511
174	0xbf6fa959	-0.9361778
175	0xbf867cd7	-1.0506848
176	0xbf848bc9	-1.0355159
177	0xbf817e89	-1.011674
178	0xbf6dc0d9	-0.9287239
179	0xbf75db71	-0.96037966
180	0xbf82615f	-1.0185965
181	0xbf853449	-1.0406581
182	0xbf6c82e1	-0.92387205
183	0xbf4a4569	-0.7901216
184	0xbf683047	-0.90698665
185	0xbf899245	-1.0747763
186	0xbf796530	-0.97420025
187	0xbf794678	-0.9737315
188	0xbf6ed08b	-0.9328696
189	0xbf6e81d4	-0.9316685
190	0xbf767b81	-0.962822
191	0xbf473544	-0.7781565
192	0xbf4e118c	-0.80495524
193	0xbf4dc762	-0.8038236
194	0xbf57600f	-0.8413095
195	0xbf746f77	-0.9548258
196	0xbf7f8d7f	-0.9982528
197	0xbf5fadf4	-0.87374806
198	0xbf6922ef	-0.9106893
199	0xbf5f6782	-0.87267315
200	0xbf547c4d	-0.8300217
201	0xbf5f1168	-0.87135935
202	0xbf81903b	-1.0122141
203	0xbf36aca2	-0.71357167
204	0xbefea5b1	-0.49735788
205	0xbf00a033	-0.50244445
206	0xbf469a16	-0.77578866
207	0xbf67c424	-0.9053366
208	0xbf5df2cd	-0.8669861
209	0xbf502cdb	-0.81318444
210	0xbf66fe3b	-0.90231675
211	0xbf784239	-0.9697605
212	0xbf7c3c2a	-0.98529303
213	0xbf6b2588	-0.91854143
214	0xbf5acf6e	-0.8547276
215	0xbf8a616e	-1.0810983
216	0xbf81127a	-1.0083764
217	0xbf810fdc	-1.0082965
218	0xbf72bd87	-0.94820446
219	0xbf587e17	-0.845674
220	0xbd622b1f	-0.055216905
221	0xbd5e4332	-0.0542633
222	0xbcfca78f	-0.030841617
223	0xbcb942c7	-0.02261485
224	0xbd06832e	-0.032839946
225	0xbd4b28c0	-0.04959941
226	0xbd29c439	-0.041446898
227	0xbcb4e4e4	-0.0220818
228	0xbce16e9f	-0.027518569
229	0xbd7e98f5	-0.06215759
230	0xbcf1450e	-0.029451873
231	0xbc3b3fdd	-0.0114288
232	0xbce4eb74	-0.027944304
233	0xbcf1a964	-0.029499717
234	0xbbca565a	-0.0061748447
235	0x3c478646	0.012178009
236	0xbcc00583	-0.023440128
237	0xbd490747	-0.049079206
238	0x3d1b4808	0.03791049
239	0xbccecfbc	-0.02524554
240	0xbc21a30a	-0.009865532
241	0xbd0ea2ce	-0.03482323
242	0xbc820d62	-0.015875522
243	0xbc87bc37	-0.01656924
244	0xbd6219e7	-0.055200484
245	0xbd2bc7cd	-0.04193859
246	0x3ce2294f	0.027607588
247	0xbc055c9d	-0.0081397565
248	0x3ce753a9	0.028238134
249	0x3c8abc2c	0.01693543
250	0xbceea77d	-0.029132599
251	0x3c3261d2	0.01088758
252	0xbbbb25a5	-0.0057112747
253	0xb9464ff2	-0.00018912533
254	0xbd87016e	-0.065920696
255	0xbd93dcd8	-0.07219857

fc1.bias f4 [128]
0	0x3ec53a8c	0.3852123
1	0xbd900c88	-0.0703364
2	0xbdbb217e	-0.091372475
3	0xbd15e917	-0.036599245
4	0xbcc26d89	-0.023733871
5	0x3cc956aa	0.024577457
6	0x3be02705	0.006840589
7	0xbc6663a3	-0.014061841
8	0xbd7aab65	-0.06119861
9	0xbce979f7	-0.02850054
10	0xbca83f13	-0.020537889
11	0xbc6ae244	-0.0143361725
12	0x3e56127f	0.20905493
13	0x3df7886f	0.120865695
14	0xbdbf05ab	-0.09327253
15	0xbd51ef7e	-0.05125379
16	0xbd6710e3	-0.05641259
17	0x3c4d1750	0.012517765
18	0x3cde507a	0.027137984
19	0x3d122c93	0.03568704
20	0xbd78479b	-0.060615163
21	0xbd7bbd92	-0.061460085
22	0xbdda59f6	-0.1066169
23	0xbc87fe48	-0.016600743
24	0x3dc582ad	0.09644065
25	0xbc147e61	-0.009063334
26	0xbdeda336	-0.11603396
27	0xbda6071b	-0.08106824
28	0x3de09d6d	0.109675266
29	0xbcc088ca	-0.023502726
30	0x3d233c25	0.03985228
31	0x3b08c98a	0.002087208
32	0x3d9b4a5d	0.07582543
33	0xbca916d8	-0.020640776
34	0x3daa0836	0.08302347
35	0x3ec84a46	0.39119166
36	0xbd7b7c78	-0.061398
37	0xbd43dd7f	-0.047818657
38	0xbc873b73	-0.01650784
39	0x3b999f94	0.0046882126
40	0x3dd9118f	0.10599052
41	0xbddb42e5	-0.107061185
42	0x3be53117	0.0069943774
43	0xbd5ecfae	-0.054397278
44	0xbd1d43ae	-0.038394623
45	0xbd8be825	-0.068313874
46	0xbc3a2ec0	-0.011363685
47	0xb92f3643	-0.00016709515
48	0x3dda5c08	0.10662085
49	0x3c0df0c7	0.008663363
50	0xbdda0fbf	-0.106475346
51	0xbd749202	-0.059709556
52	0xbc8fc6c6	-0.017550837
53	0xbdf23ed0	-0.11828387
54	0xbdb60914	-0.0888845
55	0xbd3710f4	-0.044693902
56	0xbd027afe	-0.031855576
57	0xbbc2074e	-0.005921281
58	0xbd060d2a	-0.032727398
59	0xbb5bc023	-0.003353127
60	0x3ec7e134	0.39039004
61	0x3df510dd	0.11966107
62	0x3df6ad83	0.120448135
63	0xbd37929b	-0.04481755
64	0xbd861897	-0.06547659
65	0x3c8d0dd4	0.017218508
66	0x3ca9cbed	0.020727122
67	0xbcdca8c2	-0.026935939
68	0xbcca2392	-0.024675164
69	0xbb00a8c2	-0.0019631837
70	0xbcf4d818	-0.029888198
71	0xb9c99593	-0.0003844915
72	0xbd57c43e	-0.052677386
73	0xbd83eaba	-0.06441255
74	0xbd91e214	-0.07123199
75	0xbd97e57c	-0.074168175
76	0x3d58b177	0.05290362
77	0xbcea3a33	-0.028592205
78	0x3e1aecbc	0.1512937
79	0xbdbbb289	-0.09164912
80	0x389ba92f	7.422489e-05
81	0xbd9f3f1e	-0.077757105
82	0xbd6f5e1a	-0.05843935
83	0xbd2a3d6d	-0.041562486
84	0x3e468111	0.19385172
85	0x38e2d2e6	0.00010815803
86	0xbb612783	-0.0034355826
87	0xbda60da1	-0.08108068
88	0xbce1c58f	-0.027560024
89	0xbd41e1e3	-0.047334563
90	0xbcc39478	-0.023874506
91	0x397b9921	0.0002399427
92	0xbda88a64	-0.08229521
93	0xbc4be61d	-0.012445
94	0xbd14dc19	-0.036342714
95	0xbd49c3bd	-0.049258936
96	0xbdb76e9b	-0.08956643
97	0x3d235ae3	0.0398816
98	0xbd5ae697	-0.053442564
99	0xbc5c8cf9	-0.013461345
100	0xbc968d50	-0.01837793
101	0x3b4c9129	0.0031214452
102	0x3d0ac853	0.03388245
103	0x3c7bb404	0.015362743
104	0xbd2dac70	-0.042400777
105	0x3c4ab656	0.012372574
106	0xbc6dc6f9	-0.014512771
107	0xbc348409	-0.011017808
108	0x3d39b085	0.045334358
109	0xbd2c0b14	-0.042002752
110	0x3d272e6f	0.040815767
111	0x3e14f7c9	0.14547648
112	0xbb3aa196	-0.002847766
113	0xbdc87588	-0.09788042
114	0xbe0ad809	-0.13558973
115	0xbd7ac9aa	-0.061227478
116	0xbda93b53	-0.08263268
117	0xbdb8951d	-0.09012816
118	0xbdf2a80d	-0.118484594
119	0x3a393243	0.00070646795
120	0xbd0a4a11	-0.03376204
121	0x3d8ad344	0.06778577
122	0x3e79e1ab	0.24402492
123	0x3e57681d	0.2103581
124	0xbca2ecf7	-0.019888384
125	0xbcb1ffcb	-0.021728417
126	0x3e588ae8	0.21146739
127	0xbcc4377a	-0.023952235

fc2.weight f4 [32, 128]
0	0xbde34e6a	-0.11098941
1	0x3bff04b4	0.007782543
2	0xbd91a80a	-0.07112129
3	0xbcc5beaa	-0.024138767
4	0x3c226dfc	0.009913918
5	0xbc2eb2ee	-0.010662777
6	0x3d8d18f4	0.06889525
7	0x3d70f3cb	0.05882625
8	0xbc1adcef	-0.009452089
9	0x3d181c1a	0.037136175
10	0xbb3b6115	-0.00285918
11	0xbcf0dde2	-0.029402677
12	0x3d1de662	0.03854979
13	0x3d11f120	0.035630345
14	0xbc7ddd75	-0.015494694
15	0xbd8d2693	-0.06892123
16	0x3d503b04	0.05083753
17	0x3ce99945	0.028515467
18	0xbd996080	-0.07489109
19	0xbd52fc7a	-0.05151031
20	0xbcc372bd	-0.023858422
21	0x3da5ee35	0.08102075
22	0x3c4e3fb7	0.012588433
23	0x3d8022c1	0.06256629
24	0x3cd9bcb8	0.026579246
25	0xbd08fc1c	-0.033443555
26	0xbd85a8bf	-0.065263264
27	0xbd813a9a	-0.063100055
28	0x3d489cc5	0.048977632
29	0xbbc87a4f	-0.006118096
30	0x3d6523d7	0.055942383
31	0x3c2f2f60	0.010692447
32	0x3b98017a	0.004638848
33	0x393675a8	0.00017400703
34	0xbd5f8785	-0.0545726
35	0x3c606e39	0.013698154
36	0xbcbedf55	-0.023299852
37	0xbc74ba4f	-0.014936998
38	0x3d037df0	0.032102525
39	0x3ca0fe50	0.019652516
40	0x3da63e19	0.08117313
41	0x3d3d55f6	0.046224557
42	0xbb9541b2	-0.0045549506
43	0x3c2e3b02	0.010634186
44	0x3d6dec81	0.058086876
45	0x3c90f320	0.017694056
46	0xbd68a32c	-0.056796238
47	0x3c3cb9c6	0.011518901
48	0x3dabd3cf	0.08390009
49	0xbcc4bc36	-0.024015527
50	0xbd596c30	-0.05308169
51	0xbd23fab9	-0.04003403
52	0x3ddc9f6c	0.10772595
53	0xbbaf9025	-0.0053577595
54	0xbd7a32d7	-0.06108364
55	0x3c80313a	0.015648473
56	0x3d8bd61d	0.06827948
57	0xbcbade3e	-0.022811051
58	0xbd4803c0	-0.0488317
59	0xbbca872b	-0.006180664
60	0xbc0118b0	-0.007879421
61	0xbd3835db	-0.044973236
62	0xbd393c3b	-0.045223456
63	0xbb48db04	-0.0030648122
64	0x3d9fab91	0.077963956
65	0xbbf83a23	-0.00757529
66	0xbbff6630	-0.007794164
67	0xbc2b77cb	-0.010465573
68	0xbd51094f	-0.051034268
69	0xbd992bcf	-0.07479059
70	0xbd638baf	-0.055553135
71	0xbd765107	-0.060135867
72	0xbba9257e	-0.00516194
73	0xbd1a7785	-0.03771164
74	0x3d92601f	0.0714724
75	0xbc782a75	-0.015146841
76	0x3d94f1d0	0.072726846
77	0xbd99aa62	-0.07503201
78	0x3c3c95de	0.0115103405
79	0x3b1615fa	0.0022901283
80	0x3b0be04d	0.002134341
81	0x3bb7a006	0.005603793
82	0x3c3ff1b8	0.011715345
83	0xbcd5a287	-0.026078476
84	0xbd991967	-0.07475548
85	0xbd4cc5c2	-0.049993284
86	0x3da1548f	0.078774564
87	0xbd329151	-0.043595616
88	0x3d3feb25	0.04685511
89	0xbcbcd7d3	-0.023052132
90	0x3d2a4558	0.041570038
91	0xbc2ac4a6	-0.010422861
92	0xbb094e3c	-0.0020951172
93	0x3d66123b	0.05616973
94	0xbd4fb3b8	-0.050708503
95	0x3d02dc56	0.03194841
96	0x3ca8a2f0	0.020585507
97	0x3cdac783	0.026706463
98	0x3c2a79bc	0.010405
99	0xbd8d6866	-0.06904678
100	0xbd83ccfc	-0.06435582
101	0x3cd04f68	0.025428489
102	0xbcc15c56	-0.0236036
103	0x3d0b1ae1	0.03396118
104	0x3c6e908e	0.014560832
105	0xbd0ee9d1	-0.034890953
106	0xbd87d05c	-0.06631538
107	0xbcaa3d8e	-0.020781305
108	0xbda2273e	-0.07917641
109	0xbd6671c9	-0.056260858
110	0x3cc3f1e9	0.023919063
111	0x3ce6c8af	0.028171865
112	0x3d1196e7	0.035544302
113	0xbc73e957	-0.0148871755
114	0xbba5abad	-0.0050558657
115	0xbb8b80ff	-0.004257321
116	0xbcbe233a	-0.023210157
117	0xbcc701a5	-0.024292776
118	0xbd8ebfce	-0.069701776
119	0x3d37d245	0.044878263
120	0xbd25dab5	-0.04049178
121	0x3d6efa37	0.058344092
122	0xbc5f755a	-0.013638819
123	0xbdbb8dc7	-0.09157901
124	0xbd9af765	-0.07566718
125	0xbc8bf791	-0.017085822
126	0xbd23bc22	-0.03997434
127	0xbd35ac11	-0.04435355
128	0xbe0894a3	-0.1333795
129	0xbd5b1687	-0.05348828
130	0x3cb7140a	0.022348423
131	0xbcf268bb	-0.029590955
132	0xbd1670b5	-0.03672858
133	0x3d3cde3c	0.046110377
134	0xbc3d49db	-0.011553253
135	0xbda0949f	-0.07840847
136	0x3c0b358c	0.008496653
137	0xbd8e5388	-0.06949526
138	0x3d8c27fa	0.068435624
139	0xbd11ba5b	-0.035578113
140	0x3d88324a	0.06650217
141	0xbd485cc0	-0.04891658
142	0x3ce97209	0.028496759
143	0xbce2b252	-0.02767292
144	0xb9b2117b	-0.0003396383
145	0x3d6cdf96	0.057830416
146	0xbcefa80c	-0.029254936
147	0xbd1408c1	-0.03614116
148	0x3d990f01	0.07473565
149	0xbc399076	-0.011325946
150	0xbc5cd259	-0.013477885
151	0x3bc774f5	0.0060869404
152	0x3da0c2c8	0.078496516
153	0x3c4f476a	0.012651304
154	0xbc770a4d	-0.0150781395
155	0xbd3d6743	-0.046241056
156	0x3c8f1289	0.017464893
157	0x3da963d0	0.08270991
158	0x3d083d36	0.0332615
159	0xbda6cbf3	-0.08144369
160	0x3ca3e39f	0.020006
161	0x3d09e948	0.03366974
162	0x3d085226	0.033281468
163	0xbe83c7e1	-0.25738433
164	0xbb14c453	-0.0022700026
165	0xbd031af4	-0.032008126
166	0xbd0875b1	-0.033315364
167	0xbd8d4db8	-0.06899589
168	0x3dc1a6bc	0.0945563
169	0xbd4ed982	-0.0505004
170	0xbd886acf	-0.06660997
171	0xbc9d4e14	-0.01920227
172	0x3b626821	0.003454693
173	0xbd988486	-0.07447152
174	0x3d6a7bc0	0.057246923
175	0x3d3bbb2b	0.045832794
176	0x3adf7947	0.0017049693
177	0xbbf9201e	-0.0076027056
178	0x3da11158	0.07864636
179	0xbcb30a3b	-0.021855464
180	0xb9020e87	-0.00012403178
181	0xbd4703c4	-0.048587576
182	0x3d82c8ef	0.06385981
183	0x3da7da87	0.08195978
184	0x3d53b05c	0.05168186
185	0x3d215e1e	0.039396398
186	0xbd5c5e0b	-0.053800624
187	0xbd4ee637	-0.05051252
188	0xbcfee1aa	-0.031113464
189	0xbdb7b30b	-0.089696966
190	0xbd87065f	-0.06593012
191	0x3d4fbfaf	0.050719913
192	0xbd3c1cb3	-0.045925807
193	0xbdbd252d	-0.09235606
194	0xbbc11541	-0.0058924262
195	0xbda67fe0	-0.08129859
196	0x3c65721f	0.014004259
197	0x3db672f3	0.089086436
198	0x3c40bef1	0.011764274
199	0xbd252419	-0.04031763
200	0x3d335be1	0.043788794
201	0xbc1e34d7	-0.009656153
202	0xbd8e5c29	-0.06951172
203	0xbd0ea0d5	-0.03482135
204	0x3d1eb8ed	0.038750578
205	0xbd7857e7	-0.060630705
206	0x3d431804	0.047630325
207	0x3c2fb52b	0.010724346
208	0x3da4cfa7	0.08047419
209	0xbd2fd952	-0.042931862
210	0x3d8d6e72	0.069058314
211	0x3d91f9c8	0.0712772
212	0x3d84cf6a	0.064848736
213	0xbd106ae8	-0.035258204
214	0xbd054b76	-0.03254267
215	0x3cf12934	0.029438592
216	0x3e11dbbe	0.14243981
217	0xbd543311	-0.051806513
218	0x3b6b7d8e	0.003593299
219	0x3d11d4e4	0.03560342
220	0xbd859ef0	-0.065244555
221	0x3c1c99ab	0.009558122
222	0x3be1b754	0.0068883095
223	0x3d16422f	0.03668421
224	0x3d0e4b7f	0.034739967
225	0x3a0c89b6	0.00053610967
226	0x3d58971f	0.052878495
227	0x3da68a31	0.08131827
228	0xbda32bd8	-0.07967347
229	0xbd17a74c	-0.03702478
230	0x3d86e6f3	0.06587019
231	0xbd3f22cd	-0.046664048
232	0x3d35d4f1	0.04439253
233	0x3d716f49	0.05894402
234	0x3d9c5768	0.07633859
235	0x3d01b720	0.031668782
236	0xbd70e694	-0.058813646
237	0xbd3cfe70	-0.046141088
238	0x3ca8fdcb	0.02062883
239	0xbd9c6aba	-0.07637544
240	0xbcbe3c39	-0.023222076
241	0x3d55961c	0.05214511
242	0xbda66ab9	-0.081258245
243	0xbd5cb373	-0.053882074
244	0xbcbc29d5	-0.022969166
245	0xbd118759	-0.03552947
246	0x3d16675f	0.036719676
247	0xbd177b52	-0.03698284
248	0xbd434e81	-0.04768229
249	0xbc8592db	-0.016305378
250	0x3db7eb4a	0.08980425
251	0xbde16181	-0.110049255
252	0x3d277dbc	0.040891394
253	0x3d2005c4	0.039068
254	0xbcf9e6ed	-0.030505622
255	0x3d245866	0.040123366

fc2.bias f4 [32]
0	0x3d1bfa86	0.038080715
1	0xbd60be6d	-0.054869104
2	0xbd0981f4	-0.0335712
3	0xbd75ab64	-0.059977904
4	0x3b1d1500	0.0023968816
5	0xbd2d2297	-0.042269316
6	0x3db2451b	0.08704587
7	0x3da0eb7b	0.07857414
8	0x3ccea500	0.025225163
9	0x3c0dca70	0.008654222
10	0x3d99e083	0.07513525
11	0xbda8783d	-0.08226059
12	0x3ce3c900	0.027805805
13	0xbd278c91	-0.04090554
14	0xbd7ede6e	-0.062223844
15	0xbd48e9d7	-0.049051132
16	0xbda1ab4a	-0.07893999
17	0xbc0d0ab8	-0.008608513
18	0xbda8d8ee	-0.08244501
19	0x3d41fe7a	0.04736183
20	0x3c7e7098	0.015529774
21	0x3d4611fa	0.048356988
22	0xbd185d07	-0.037198093
23	0xbd889bbc	-0.06670329
24	0x3ad76c40	0.0016435459
25	0xbd089d34	-0.033353046
26	0xbd280532	-0.04102058
27	0xbd74db7a	-0.05977962
28	0x3d4d3712	0.050101347
29	0xbcfe3c56	-0.03103463
30	0x3d8c650d	0.068552114
31	0xbd2b6bf1	-0.041850988
