archive/eeg_embeddings/saved_models/model_1_3dec.pth (torch, 293822 bytes, 10 tensors)

conv_layers.0.weight f4 [16, 1, 3]
0	0x3e3dd6d8	0.18538988
1	0xbd113431	-0.035450164
2	0x3ebaaf96	0.36462086
3	0xbeb0770b	-0.34465823
4	0x3e50017b	0.20313065
5	0x3d8f3836	0.06993143
6	0x3f0e1184	0.55495477
7	0xbf15b6e4	-0.58482194
8	0xbec06d28	-0.3758328
9	0xbe76c45c	-0.24098343
10	0x3eaac300	0.33351898
11	0xbee7df1e	-0.45287412
12	0xbe8db0e4	-0.2767402
13	0x3e9d53f4	0.30728114
14	0xbf074965	-0.52846366
15	0xbedb3416	-0.42813176
16	0x3f01b135	0.5066102
17	0xbec79456	-0.3898036
18	0xbef6f8cc	-0.48236692
19	0xbe7bd167	-0.245916
20	0x3eb71218	0.35755992
21	0xbe160fb5	-0.1465443
22	0x3efbd9a5	0.49189487
23	0x3ddae74a	0.10688646
24	0x3e4b674f	0.19863628
25	0xbe12905d	-0.14312883
26	0x3eaf7cc4	0.34274876
27	0xbe979a4c	-0.29609907
28	0xbeada33b	-0.33913597
29	0x3df19647	0.11796241
30	0xbea3eddb	-0.32017407
31	0xbeed7e9a	-0.46385652
32	0x3f03ec2b	0.5153224
33	0x3d9c8269	0.07642061
34	0x3d860b68	0.06545144
35	0xbe81c678	-0.25346732
36	0x3e8aa142	0.27076155
37	0x3d97a3a3	0.07404258
38	0xbed46dac	-0.41489923
39	0xbecb021f	-0.39650056
40	0xbe87db31	-0.26534417
41	0xbe9e81ea	-0.30958492
42	0xbeb5f684	-0.3553964
43	0x3d990005	0.07470707
44	0x3dba7a67	0.09105378
45	0x3e83bae4	0.25728524
46	0x3ed5e148	0.41773438
47	0xbe86ea35	-0.2635056

conv_layers.0.bias f4 [16]
0	0x3e3ba9fa	0.1832656
1	0x3fe985fd	1.8244015
2	0xbfd66435	-1.6749331
3	0xbffdd2fc	-1.9830012
4	0xc05e6cdc	-3.4753942
5	0xc03f2542	-2.986649
6	0xbf4f4733	-0.80968016
7	0xbfbf717a	-1.4956505
8	0xc025efa7	-2.5927522
9	0xc0375c58	-2.8650112
10	0x3de708c6	0.1128097
11	0xbfb6af52	-1.4272254
12	0x3f9e9551	1.2389318
13	0xbedc6ce5	-0.4305183
14	0xbf81a423	-1.0128216
15	0xc056a32a	-3.3537087

conv_layers.1.weight f4 [32, 16, 5]
0	0x3d0a507a	0.033768155
1	0x3e387b4b	0.18015783
2	0x3e05c518	0.13063467
3	0x3e50bead	0.20385237
4	0x3d8fc3eb	0.0701979
5	0xbd8324b9	-0.06403489
6	0x3d994d1e	0.07485412
7	0x3d677773	0.0565104
8	0x3e49e640	0.1971674
9	0x3dedf20b	0.11618432
10	0xbd540c1e	-0.05176937
11	0xbde3510f	-0.11099445
12	0xbcd73365	-0.026269624
13	0xbd22dec9	-0.039763246
14	0xbde08f4a	-0.1096483
15	0xbd9920a6	-0.0747693
16	0x3caf1d3d	0.021376247
17	0xbd9dde87	-0.07708459
18	0xbdb0b79c	-0.08628771
19	0xbdbaa179	-0.0911283
20	0xbd4f81a8	-0.05066076
21	0xbd5b8822	-0.053596623
22	0xbdba2db8	-0.090907514
23	0xbe044a85	-0.12919052
24	0x3a7abacf	0.000956458
25	0xbd0f83d2	-0.035037823
26	0x3d6574eb	0.056019705
27	0xbd5e1ede	-0.054228656
28	0xbc790223	-0.015198263
29	0xbd837934	-0.06419602
30	0xbd1180d3	-0.035523247
31	0xbce9a1a4	-0.02851946
32	0xbdb62ca8	-0.08895236
33	0xbda85f50	-0.082213044
34	0xbe13bc7b	-0.14427368
35	0x3d2e3047	0.04252651
36	0xbd1a5a9e	-0.037684076
37	0xbd8d4f48	-0.06899887
38	0x3dad710a	0.08468826
39	0xbd441ac6	-0.047877096
40	0xbc639276	-0.0138898995
41	0x3b54335e	0.003237925
42	0xbd802530	-0.06257093
43	0xbd982204	-0.07428363
44	0x3e102890	0.14077973
45	0xbd1ed89e	-0.0387808
46	0x3d15578f	0.036460456
47	0xbd8b30b9	-0.067964025
48	0x3b4f72da	0.003165415
49	0xbd9a720f	-0.07541286
50	0xbd1f817a	-0.038941838
51	0xbdcd928d	-0.10037718
52	0xbe2abebb	-0.1667432
53	0xbd540822	-0.05176557
54	0xbe24443a	-0.16041651
55	0xbe606fe9	-0.2191769
56	0x3b82e7b3	0.003994906
57	0xbe625fed	-0.22106905
58	0xbe3fddf3	-0.1873701
59	0xbdd99148	-0.10623413
60	0xbec0ef14	-0.37682402
61	0xbeac8238	-0.336931
62	0xbeae950e	-0.34098095
63	0xbe832629	-0.2561505
64	0xbef65fdc	-0.4812001
65	0xbd82c2df	-0.06384825
66	0x3cf3c52a	0.029757101
67	0xbc7e4b92	-0.015520947
68	0x3e52bc8d	0.20579739
69	0x3c0b0fa5	0.008487617
70	0x3d035c38	0.03207037
71	0xbe33a364	-0.17542797
72	0xbd83159f	-0.06400608
73	0xbd26de30	-0.04073924
74	0xbe1895ac	-0.14900845
75	0x3d4f96c9	0.05068091
76	0x3c4acb8c	0.012377631
77	0xbde21c7a	-0.11040588
78	0xbd9262dc	-0.07147762
79	0xbe5bd53c	-0.21468061
80	0x3db29b38	0.08721012
81	0x3dabbee6	0.0838602
82	0xbdcfe2c9	-0.10150678
83	0xbd092467	-0.03348198
84	0xbe0094d2	-0.1255677
85	0xbdce682d	-0.10078464
86	0xbcac062b	-0.020999035
87	0x3dd64cbc	0.10463855
88	0x3e406a28	0.18790495
89	0xbe84cfc0	-0.2593975
90	0xbdd2bfde	-0.10290502
91	0x3c7fbc34	0.015608836
92	0x3c2a819a	0.010406876
93	0x3c39a66e	0.011331184
94	0x3d914d0b	0.07094773
95	0xbe67be7f	-0.22631262
96	0xbb7437cc	-0.0037264703
97	0xbe14de2c	-0.14537877
98	0xbe5db819	-0.21652259
99	0xbe3fd445	-0.18733318
100	0xbe91406c	-0.28369462
101	0xbc6c3ad1	-0.01441832
102	0x3d002399	0.03128395
103	0xbe055462	-0.1302047
104	0xbe465800	-0.19369507
105	0x3c8fd795	0.017558852
106	0xbd30a331	-0.04312438
107	0xbd3ceb04	-0.046122566
108	0x3c90d8e0	0.017681539
109	0xbe6ecb66	-0.23319778
110	0x3a064a87	0.00051228
111	0x3d7a8f24	0.061171666
112	0xbd4da3e4	-0.050205126
113	0x3ca75754	0.020427383
114	0x3c9bf0ba	0.019035686
115	0xbe076f81	-0.13226129
116	0x3d431f10	0.047637045
117	0x3d554b1c	0.052073583
118	0x3dc6d6b5	0.09708921
119	0x3bae3cce	0.005317307
120	0xbcc039be	-0.023465034
121	0xbd2102d8	-0.039309353
122	0xbcfd317d	-0.030907387
123	0xbdc38acb	-0.09547957
124	0xbd9057ca	-0.070479944
125	0xbcebd281	-0.0287869
126	0xbdfe4eec	-0.12417397
127	0xbd1a695b	-0.03769813
128	0xbc729624	-0.014806304
129	0xbc9608af	-0.018314688
130	0x3d49607c	0.04916428
131	0x3e049630	0.12947917
132	0x3d94227d	0.072331406
133	0xbd862131	-0.065492995
134	0xbd853f4a	-0.06506212
135	0x3c82f42c	0.01598557
136	0x3d70029a	0.05859623
137	0xbc57d184	-0.013172511
138	0xbdb223aa	-0.08698209
139	0x3c19fd59	0.009398782
140	0x3dfb8e4b	0.122829996
141	0xbed25346	-0.41079158
142	0xbe5fb8f4	-0.21847898
143	0x3dcdbe6a	0.10046084
144	0x3ecb7430	0.39737082
145	0xbd8c28e3	-0.06843736
146	0xbbfc56cb	-0.007700776
147	0xbda64b5c	-0.081198424
148	0x3dc43e84	0.095822364
149	0xbe05df2e	-0.13073418
150	0xbdc39b23	-0.09551074
151	0xbe18159f	-0.14851998
152	0x3dbadda0	0.09124303
153	0x3d890afc	0.06691548
154	0xbde32cfb	-0.11092564
155	0xbe500011	-0.20312525
156	0xbe10a8a1	-0.14126827
157	0xbc0206e7	-0.007936216
158	0xbdd7870d	-0.10523806
159	0x3d7f6afe	0.062357895
160	0x3dbbf57b	0.09177681
161	0xbd4988d0	-0.04920274
162	0xbdca56ba	-0.09879823
163	0xbb08cb22	-0.002087303
164	0xbe3fd3a7	-0.18733083
165	0xbc9565c0	-0.018236995
166	0xbd158356	-0.036502205
167	0xbcdc0007	-0.026855482
168	0xbb54a706	-0.0032448187
169	0xbe02d79d	-0.12777562
170	0xbc47f8fa	-0.012205357
171	0x3cbb08f1	0.022831412
172	0xbd8b752a	-0.06809457
173	0x3dcc3815	0.09971634
174	0x3d03a74f	0.03214198
175	0x3d510505	0.051030178
176	0xbda15fe8	-0.07879621
177	0xbe07795d	-0.1322989
178	0x3d32e72d	0.043677498
179	0x3d151f56	0.036406837
180	0x3d0bc94e	0.034127526
181	0x3d91e80f	0.0712434
182	0xbc8aa0de	-0.01692241
183	0xbde9ed11	-0.1142217
184	0x3d24bccc	0.040219113
185	0xbe190d14	-0.14946395
186	0xbca421bc	-0.020035617
187	0x3d1a99d1	0.037744347
188	0x3cfc7865	0.030819127
189	0xbd4a2555	-0.04935201
190	0xbcf57061	-0.029960813
191	0xbca9c0d7	-0.020721836
192	0xbe12eb15	-0.14347489
193	0xbd7b8a85	-0.0614114
194	0x3cd89703	0.026439195
195	0xbd8037dc	-0.06260654
196	0x3d78f478	0.06078002
197	0xbdccef14	-0.10006538
198	0xbbe550ad	-0.0069981427
199	0xbdbee398	-0.09320754
200	0x3ce5953b	0.02802526
201	0x3ca45f1d	0.020064885
202	0xbd174208	-0.036928207
203	0xbdb63c50	-0.088982224
204	0x3a9b7b00	0.0011862218
205	0xbc8949f5	-0.016758898
206	0xbdb0a86d	-0.08625875
207	0x3d0c6392	0.034274645
208	0xbd943fa1	-0.07238699
209	0xbdc04d2b	-0.093897186
210	0x3d3b5210	0.045732558
211	0xbcce0437	-0.025148494
212	0xbe24fd3e	-0.16112229
213	0xbdee4839	-0.11634869
214	0xbe050d35	-0.1299332
215	0xbd6b1a4f	-0.057398137
216	0x3da1255d	0.078684546
217	0x3c1782ef	0.009247526
218	0xbde6d4fc	-0.11271092
219	0x3e02428a	0.12720695
220	0x3e507268	0.20356143
221	0x3d3e8d91	0.046521727
222	0x3e1d57ac	0.15365475
223	0xbcdc3ac8	-0.026883498
224	0x3eae2198	0.34010005
225	0x3d849d5d	0.06475327
226	0xbd8b1802	-0.067916885
227	0xbdb60960	-0.08888507
228	0x3c470057	0.012146077
229	0x3d3858fd	0.04500674
230	0xbd9433bf	-0.07236432
231	0xbd941227	-0.07230025
232	0xbde00ecd	-0.10940323
233	0xbdf723cf	-0.12067377
234	0x3d0717c8	0.032981664
235	0x3d72f293	0.059313368
236	0x3dcabfb5	0.098998465
237	0x3b9d95d6	0.0048091216
238	0xbe11bdcc	-0.14232558
239	0x3dc6abde	0.0970075
240	0x3d767274	0.060167745
241	0x3d5d86cb	0.054083627
242	0x3d933730	0.071882606
243	0x3d993c84	0.074822456
244	0xbe12ce19	-0.14336433
245	0x3e4547c7	0.19265662
246	0x3e725bd4	0.23667842
247	0x3de9b11d	0.11410735
248	0xbde4a349	-0.11163957
249	0xbea2464e	-0.31694263
250	0x3d2d1e9a	0.042265512
251	0xbe143700	-0.14474106
252	0x3d872c2f	0.06600224
253	0xbc9d84c8	-0.019228354
254	0x3cefb218	0.029259726
255	0xbd905437	-0.07047313

conv_layers.1.bias f4 [32]
0	0x3fae2ce5	1.3607451
1	0x3f577a43	0.8417093
2	0xbe8ee0b1	-0.279058
3	0xbd6c44d6	-0.057682835
4	0xbf61cfce	-0.8820771
5	0xbd69451b	-0.05695067
6	0xbea66b75	-0.32503858
7	0x3ef193af	0.47182986
8	0xbe966a09	-0.29377773
9	0x3dc2d894	0.09513965
10	0xbec5c9e3	-0.3863059
11	0x3fad8c73	1.3558487
12	0xbe76a812	-0.24087551
13	0xbe313876	-0.17306694
14	0xbfcd9216	-1.6060207
15	0x3e7d4da6	0.24736652
16	0xbd924f9f	-0.07144093
17	0x3f650e87	0.8947529
18	0xbf8610df	-1.0473899
19	0x3e9e4120	0.3090906
20	0xbea646a6	-0.32475775
21	0x3ee5458f	0.44779631
22	0xbe0607e5	-0.13088949
23	0x3c6d9d7a	0.014502877
24	0x3e4cef14	0.20013076
25	0x3d841bcf	0.064506166
26	0x3fedcd34	1.8578248
27	0x3f754dfa	0.9582211
28	0xbf98db06	-1.1941841
29	0xbf003f4d	-0.5009659
30	0x3fb781c1	1.4336473
31	0x3f49944b	0.787419

conv_layers.2.weight f4 [16, 32, 3]
0	0xbb246f38	-0.0025090706
1	0x3c0033b3	0.007824826
2	0x3bc29177	0.005937751
3	0x3d3831a8	0.04496923
4	0xbd7aae56	-0.061201416
5	0xbc2d9f1b	-0.010597016
6	0x3cb7ee23	0.02245242
7	0xbdffada9	-0.12484295
8	0x3bd17bcc	0.0063929316
9	0xbde4285e	-0.11140512
10	0x3d4da71c	0.050208196
11	0x3d271b0a	0.04079727
12	0xbda98612	-0.08277525
13	0xbdf5aa03	-0.11995318
14	0xbd5ac95f	-0.0534147
15	0x3d26f92a	0.040764965
16	0xbd41bd74	-0.047299817
17	0xbdbb9f7e	-0.0916128
18	0xbd68b32c	-0.056811497
19	0x3d4c6180	0.04989767
20	0x3c9d4bc3	0.019201165
21	0xbd57e263	-0.052706134
22	0xbce36feb	-0.027763328
23	0xbdf7ba66	-0.120960996
24	0xbdadc2ee	-0.084844455
25	0xbdfe0857	-0.124039344
26	0x3cbe05d3	0.023196137
27	0xbc7fe576	-0.015618673
28	0x3d84a91f	0.0647757
29	0x3c9e0b4f	0.019292502
30	0x3c592712	0.013253944
31	0xbddff3bd	-0.10935161
32	0x3d662b76	0.05619379
33	0xbe874da4	-0.26426423
34	0xbd1db1f8	-0.038499802
35	0xbec55abd	-0.3854579
36	0xbc984bb7	-0.018590791
37	0xbdaeaf6c	-0.08529553
38	0xbdbdbd44	-0.09264615
39	0xbdc9dab1	-0.09856165
40	0x3c2aa8b8	0.010416202
41	0xbdbbe2e0	-0.09174132
42	0xbdb7abe0	-0.089683294
43	0xbcab8187	-0.020935787
44	0xbd71f7e4	-0.059074298
45	0xbdb11d08	-0.086481154
46	0xbdbb51b1	-0.09146441
47	0x3d82b755	0.06382624
48	0xbd2382e3	-0.039919745
49	0xbd5f9bf3	-0.054592084
50	0xbc23af08	-0.009990461
51	0xbd8c1370	-0.06839645
52	0x3d697ae1	0.057001952
53	0x3d0e97de	0.0348128
54	0xbd4864c3	-0.04892422
55	0xbdabba6e	-0.08385168
56	0xbd132a0a	-0.035928763
57	0xbcaba480	-0.020952463
58	0xbd6961d2	-0.056978054
59	0xbdfe0e50	-0.12405074
60	0xbbb4469e	-0.0055015823
61	0xbd14761d	-0.036245454
62	0xbdd220a9	-0.10260136
63	0x3cfb335e	0.030664142
64	0x3ca0054c	0.019533776
65	0xbc754802	-0.014970781
66	0x3d1cf566	0.038319968
67	0xbc94ed14	-0.018179454
68	0xbcb7d3cd	-0.022439862
69	0xbbdfcb4b	-0.0068296543
70	0x3d5e07dd	0.054206718
71	0x3c30f4d2	0.010800557
72	0x3d896c72	0.067101374
73	0xbdbdc762	-0.09266545
74	0x3d3481cc	0.044069096
75	0xbdb52aa0	-0.08846021
76	0x3d4caeeb	0.049971502
77	0xbda4d5ec	-0.08048615
78	0xbe8f6552	-0.2800699
79	0xbe19bfd8	-0.15014589
80	0x3e8885d9	0.26664618
81	0xba8b32ec	-0.0010620034
82	0xbc9afccb	-0.01891937
83	0x3d39e189	0.045381103
84	0x3d910792	0.07081522
85	0xbdf3ef8a	-0.11910923
86	0xbd69b040	-0.05705285
87	0x3c8137d6	0.015773695
88	0xbc562587	-0.013070471
89	0xbc91adbe	-0.017783042
90	0xbdacf45f	-0.084450476
91	0xbdb49b61	-0.08818699
92	0xbd3cbc31	-0.04607791
93	0xbd1a1cef	-0.03762525
94	0xbb15af18	-0.002283996
95	0x3d386bf9	0.045024846
96	0xbdf68add	-0.12038205
97	0xbe77a17f	-0.241827
98	0xbe20ffe9	-0.15722622
99	0x3cbb2b61	0.022847833
100	0x3de6c62a	0.112682655
101	0x3c9e2e13	0.01930908
102	0x3d4ef770	0.050528944
103	0xbc464afc	-0.012102839
104	0x3ddf2a5d	0.10896752
105	0x3d85e641	0.06538058
106	0x3d681cc6	0.056668065
107	0xbd30911e	-0.043107145
108	0xbcc9d9cd	-0.024639988
109	0xbd49c64e	-0.049261384
110	0x3c71ce16	0.014758607
111	0x3d463f93	0.048400473
112	0xbdd0fbdf	-0.102042906
113	0xbe0935b2	-0.1339939
114	0x3b96e7ad	0.0046052546
115	0xbdf8e12b	-0.121523224
116	0xbdaa2a11	-0.08308805
117	0xbd93b88a	-0.072129324
118	0x3ca4c467	0.020113183
119	0xbe25b0d9	-0.16180743
120	0xbd97a055	-0.07403628
121	0x3cc29521	0.02375275
122	0xbd272aa0	-0.040812135
123	0x3bd95be9	0.006633271
124	0xbc75136f	-0.014958247
125	0x3d58d779	0.052939866
126	0x3ca22aa4	0.019795723
127	0xbe10fa0d	-0.14157887
128	0xbd011cdb	-0.03152166
129	0xbd91b5d1	-0.07114757
130	0x3d2b716e	0.04185622
131	0xbb466e97	-0.003027832
132	0xbde917aa	-0.11381467
133	0xbd33ba68	-0.043878943
134	0xbd766a25	-0.06015982
135	0xbbde47bb	-0.0067834533
136	0x3b984f5e	0.004648133
137	0xbda6ac7a	-0.08138366
138	0xbe14fd95	-0.14549859
139	0xbd797dd1	-0.060911004
140	0xbd5993ad	-0.05311935
141	0xbd84097c	-0.064471215
142	0xbda3c6ab	-0.07996877
143	0x3d8279cc	0.06370887
144	0xbdaf597a	-0.08561988
145	0xbe02edc4	-0.12786013
146	0xbd39ffc6	-0.04540994
147	0xbe0b947f	-0.13630866
148	0xbdd6843a	-0.10474439
149	0x3cc8d23c	0.02451431
150	0xbdc19006	-0.094512984
151	0xbdfd03b0	-0.12354219
152	0xbdf67ded	-0.12035737
153	0xbde29097	-0.110627346
154	0xbcd9e459	-0.026598142
155	0x3d83ab34	0.06429139
156	0xbdb33d89	-0.08751971
157	0xbc84b679	-0.016200291
158	0xbd319833	-0.04335804
159	0xbd5943f1	-0.05304331
160	0x3cbd59d2	0.023114119
161	0xbdf01335	-0.117224135
162	0x3d5e3390	0.054248393
163	0xbbeea013	-0.007282266
164	0x3d929c8b	0.071587645
165	0x3ce179a1	0.027523817
166	0xbd965f2b	-0.073423706
167	0x3d2e257e	0.042516224
168	0xbdafcf20	-0.08584428
169	0x3cb09d23	0.021559304
170	0xbcac6963	-0.021046346
171	0x3e01c57f	0.12672995
172	0x3cbf5aea	0.02335878
173	0x3cc16ac5	0.023610482
174	0x3e7f1ace	0.24912569
175	0x3e4732ec	0.19453019
176	0xbd9c4acf	-0.07631456
177	0xbdd568e9	-0.10420401
178	0x3e02c308	0.12769711
179	0xbe146f85	-0.14495666
180	0x3baafb97	0.00521798
181	0xbd78228a	-0.060579814
182	0x3d045885	0.03231098
183	0xbd570b8b	-0.052501243
184	0x3bfd6289	0.0077326936
185	0xbd4fa878	-0.050697774
186	0x3cd05ef5	0.025435904
187	0xbb93721a	-0.004499686
188	0xbd06c82a	-0.032905735
189	0xbe06f2cd	-0.13178559
190	0xbdcdf3a2	-0.10056235
191	0xbaab8be4	-0.0013087955
192	0xbddd1dc5	-0.10796694
193	0xbd4e9c7a	-0.050442196
194	0xbd34cd4b	-0.044141095
195	0xbdbe42af	-0.09290063
196	0x3d93105f	0.07180857
197	0x3d9490f3	0.07254209
198	0x3d69dc18	0.057094663
199	0xbdaa17dd	-0.08305333
200	0xbd37daa9	-0.044886265
201	0xbddd7cbe	-0.10814808
202	0x3d0dccc1	0.034619097
203	0xbd5ba28b	-0.05362181
204	0xbdc1c794	-0.09461895
205	0x3d1f7a0f	0.038934764
206	0xbdf31ec9	-0.11871106
207	0xbd8b53c8	-0.068030894
208	0xbdf1bb05	-0.11803249
209	0xbd6c9875	-0.05776258
210	0xbd726812	-0.05918128
211	0x3a28cd7b	0.00064393104
212	0xbd80e0af	-0.06292855
213	0xbd7d6137	-0.06186029
214	0xbda3afb8	-0.079925
215	0x3cbaefe0	0.02281946
216	0xbd63d09b	-0.055618864
217	0xbd0f33bf	-0.03496146
218	0xb91388e2	-0.00014070005
219	0x3d0e936a	0.034808554
220	0xbd7f239b	-0.062289815
221	0x3d21ce45	0.039503355
222	0x3d539765	0.051658053
223	0xbdedfd91	-0.116206296
224	0x3c3a5c6e	0.011374576
225	0x3ccd0b8e	0.025029924
226	0xbea23c6a	-0.31686717
227	0xbef717fb	-0.48260483
228	0xbdf05f42	-0.11736919
229	0x39b06963	0.00033647855
230	0x3c3b4934	0.011431027
231	0xbd14a6b5	-0.036291797
232	0x3c0c9e2b	0.008582632
233	0x3b66ec42	0.0035236035
234	0x3dbb6452	0.09149994
235	0xbd6751a6	-0.05647435
236	0x3deb9f1c	0.11504957
237	0xbd9aedd8	-0.07564896
238	0x3b711231	0.0036784525
239	0xbb6205d6	-0.0034488342
240	0xbe17cb6f	-0.14823698
241	0xbd47eaeb	-0.04880802
242	0xbde0ebff	-0.10982513
243	0xbdf857c0	-0.12126112
244	0xbd30e3d3	-0.04318602
245	0xbd4e4b66	-0.050364874
246	0xbe1b5e9f	-0.15172814
247	0xbb133865	-0.0022464034
248	0xbe0f6470	-0.14003158
249	0x3d881f76	0.06646626
250	0xbd949cf9	-0.07256503
251	0x3d8a68fe	0.06758307
252	0x3d9c7003	0.07638552
253	0x3cf145cb	0.029452225
254	0x3d371eec	0.044707224
255	0x3c939657	0.018016024

conv_layers.2.bias f4 [16]
0	0x3e808560	0.25101757
1	0x3e742fef	0.2384641
2	0xbb5f568e	-0.003407869
3	0x3d006075	0.03134199
4	0xbdbf5a4f	-0.09343397
5	0x3f2814f8	0.65656996
6	0x3f238673	0.6387703
7	0x3e0745ae	0.13210174
8	0x3e1000eb	0.1406285
9	0x3f5b7828	0.8573022
10	0xbe58b9fc	-0.21164697
11	0x3e9b7284	0.30360806
12	0x3eb14232	0.34620816
13	0xbd85bc8a	-0.065301016
14	0xbd26ae14	-0.040693358
15	0x3e230116	0.15918383

fc1.weight f4 [128, 500]
0	0xbaf1a3d8	-0.001843567
1	0xbc1e5fee	-0.009666426
2	0xbc5de714	-0.013543863
3	0x3b2a6714	0.002600138
4	0x3cecc5df	0.028902946
5	0xbcfed38c	-0.031106733
6	0xbbb7c6f7	-0.0056084353
7	0x3cc6496e	0.024204936
8	0x3caa7a5f	0.020810304
9	0x3c9a305b	0.018821886
10	0x3c51bb16	0.012800952
11	0x3d01e4ad	0.031712223
12	0xbc3ab725	-0.011396204
13	0xbd47ef4f	-0.048812207
14	0x3b2716aa	0.0025495687
15	0xbcdcd855	-0.026958624
16	0x3d00a7b1	0.031409923
17	0xbd0287f0	-0.03186792
18	0x3b8cef3a	0.004300979
19	0x3c9d656d	0.019213403
20	0xbca5df95	-0.020248214
21	0xbcb960cc	-0.022629164
22	0xbcb995e8	-0.022654489
23	0x3b0f847c	0.0021899035
24	0xbcc9f16a	-0.024651248
25	0xbc41e435	-0.011834194
26	0xbc84a5ed	-0.0161924
27	0xbcccb48c	-0.024988435
28	0xbcea160e	-0.02857497
29	0xbd3083e6	-0.04309454
30	0xbaa7125a	-0.0012746558
31	0x3be1bdbf	0.0068890746
32	0x3c90fda9	0.01769908
33	0xbd6c3254	-0.057665184
34	0x3cb206cd	0.021731758
35	0x3c664d58	0.014056526
36	0xbd4b784e	-0.04967528
37	0x3c7d8321	0.015473158
38	0x3d0230d6	0.031784855
39	0x3c947e48	0.018126622
40	0x3b6be896	0.0035996786
41	0xbcb94f0b	-0.022620698
42	0xbd4c7772	-0.0499186
43	0xbc3e7e61	-0.011626811
44	0xbd4b7afc	-0.049677834
45	0xbc8bcfc9	-0.017066853
46	0xbc221ff3	-0.009895313
47	0xbc242aec	-0.010019999
48	0xbc200f82	-0.009769322
49	0x3c3c2bd2	0.011485057
50	0xbc50436c	-0.012711387
51	0xbd06d878	-0.032921284
52	0x39238c6d	0.00015597204
53	0xbc9d81ee	-0.019226994
54	0xbcadc6b4	-0.021212913
55	0xbca1a66f	-0.019732682
56	0xbce1ef05	-0.027579794
57	0xbc5876c0	-0.013211906
58	0xbc86ce01	-0.016455652
59	0xbd4be588	-0.049779445
60	0x3b8b8838	0.004258182
61	0xbd29f8ae	-0.041496925
62	0x3c2b8400	0.010468483
63	0xbd184601	-0.037176136
64	0x3cbfdb1c	0.02341991
65	0x3bb224b9	0.0054365066
66	0x3be8999c	0.00709839
67	0xbd1e1113	-0.038590502
68	0xbc085afc	-0.008322474
69	0xbcdec555	-0.027193705
70	0xbba700f6	-0.00509655
71	0x3ceefc2e	0.029172983
72	0xbd1266e2	-0.035742648
73	0xbcb62215	-0.022233048
74	0xbd399b07	-0.04531386
75	0xbceffb37	-0.029294593
76	0x3a8c3216	0.0010696079
77	0xbcd482c5	-0.025941262
78	0xbc07c5bf	-0.008286892
79	0xba97edf8	-0.0011591306
80	0xbcccb357	-0.02498786
81	0xbd5185a1	-0.05115283
82	0x3cf8e03f	0.030380366
83	0xbd00191a	-0.03127394
84	0xbd39390e	-0.045220427
85	0x3b4600ee	0.0030212956
86	0xbcf813ba	-0.030282844
87	0xbc3b960c	-0.011449348
88	0xbb58e981	-0.0033098164
89	0x3c7626ec	0.015023928
90	0x384ae4b2	4.8373542e-05
91	0xbc2b9bfa	-0.010474199
92	0xbd4f9ff6	-0.05068966
93	0x3c8631fe	0.01638126
94	0xbcb2fc23	-0.021848744
95	0xbd3f970b	-0.046774905
96	0x3b6b8923	0.0035939894
97	0x3c8a80a2	0.01690704
98	0x3a4d3fa1	0.0007829611
99	0x3d04f546	0.032460473
100	0xbce3130d	-0.027719045
101	0x3d0570dc	0.032578334
102	0xbd333aa3	-0.043757092
103	0x3cc66080	0.024215937
104	0xbc8bcd98	-0.017065808
105	0xbc0b4b9b	-0.0085019125
106	0x3cf9d665	0.03049774
107	0x3d066356	0.032809578
108	0xbd4a068f	-0.04932266
109	0x3ce1f20b	0.027581235
110	0x3c2a9977	0.010412565
111	0x3ca45e1b	0.020064404
112	0xbd2331ba	-0.039842345
113	0xbcaeafca	-0.021324057
114	0x3b8c8ee0	0.004289493
115	0x3cbeb098	0.023277566
116	0xbd47d16e	-0.048783712
117	0x3c951937	0.0182005
118	0x3caa18fb	0.020763865
119	0x3d0d64d1	0.034519974
120	0xbcc1f7b1	-0.023677679
121	0xbd21c112	-0.039490767
122	0xbce70483	-0.028200394
123	0x3cc1ed1d	0.023672635
124	0xbcfd8480	-0.03094697
125	0xbd1006f5	-0.035162885
126	0xbcad7907	-0.021175874
127	0xbc4023c9	-0.011727282
128	0xbcf1d150	-0.029518753
129	0xbacaf28c	-0.0015483662
130	0x3c9b76d1	0.018977555
131	0xbc4e56ba	-0.012593919
132	0x3cbe5658	0.023234531
133	0xbd70006b	-0.05859415
134	0x3b673349	0.003527837
135	0xbc692325	-0.0142295705
136	0xbd4d31e8	-0.050096422
137	0x3c81935b	0.015817335
138	0xbcffe35f	-0.031236349
139	0x3cb51147	0.022102965
140	0xbccd1567	-0.02503462
141	0x3d14dcc6	0.03634336
142	0xbc85db70	-0.016339988
143	0x3b202c5d	0.0024440505
144	0xbc3b892d	-0.0114462795
145	0xbd48ebf5	-0.04905315
146	0xbd30e172	-0.04318375
147	0xbd45a98e	-0.048257403
148	0x39bc6202	0.00035931176
149	0xbd4ff513	-0.05077083
150	0xbd53e19a	-0.051728822
151	0xbcb4c16d	-0.022064889
152	0xbc18786c	-0.009306055
153	0x3c682413	0.014168757
154	0x3cd00506	0.02539302
155	0x3d06cf73	0.032912683
156	0xbc3eeac8	-0.011652656
157	0x3caa61de	0.02079862
158	0xbc8f6fab	-0.017509302
159	0x3c6b0417	0.014344237
160	0xbd17b963	-0.037042033
161	0x3cc725f8	0.024310097
162	0x3b51f47e	0.0032036598
163	0xbd05ad00	-0.03263569
164	0xbcf93d24	-0.030424662
165	0xbc8662dd	-0.016404564
166	0xbd2740fe	-0.040833466
167	0x3cc0b5bc	0.023524158
168	0xbd13d0a2	-0.03608764
169	0xbc4cd7f5	-0.01250266
170	0xbbfad8b1	-0.007655226
171	0xb9faae97	-0.00047813795
172	0x3ab8f758	0.00141118
173	0xbbe51bc2	-0.0069918344
174	0x3d180694	0.03711565
175	0xbb96e154	-0.004604498
176	0xbc9d03bd	-0.019166822
177	0x3ca2df07	0.019881738
178	0xbb90e1ee	-0.004421464
179	0x3a25937a	0.0006316226
180	0x3cbdc8b6	0.023166995
181	0xb8bb314e	-8.9260386e-05
182	0xbd2559ba	-0.040368773
183	0xbbee4a3b	-0.0072720326
184	0xbc441f0e	-0.011970295
185	0xbd1ef5e2	-0.03880871
186	0x3c9fa9d0	0.019490153
187	0xbc992e3a	-0.0186988
188	0x3c6af0bb	0.014339621
189	0xbc8dcfdf	-0.017311035
190	0x3c685d02	0.014182331
191	0x3a7a086c	0.0009537998
192	0xbb84d673	-0.0040538847
193	0xbc1a4821	-0.009416611
194	0xbc44a04a	-0.0120011065
195	0x3c2128cb	0.009836386
196	0x3b9e58f3	0.004832381
197	0x3c811db9	0.015761243
198	0xbd0bf32b	-0.03416745
199	0xbbd43288	-0.0064757504
200	0x3c8126b0	0.015765518
201	0xbb2b699b	-0.0026155475
202	0x3c38334b	0.011242698
203	0xbd415388	-0.047198802
204	0xbcc1fbf7	-0.023679717
205	0x3c5364cb	0.012902449
206	0xbd11bb0a	-0.035578765
207	0xbd59c8ad	-0.053169895
208	0x3b7e15d6	0.003877034
209	0xbcd9569c	-0.026530556
210	0x3a655827	0.00087487925
211	0x3d702c8a	0.058636226
212	0xbd203eda	-0.03912244
213	0x3ceaaf3e	0.028648015
214	0xbd1458f8	-0.03621766
215	0xbd2ca07d	-0.04214524
216	0x3bda04b1	0.0066533913
217	0xbd0ef819	-0.034904573
218	0x3cf3489d	0.02969771
219	0x396c1f18	0.00022518297
220	0x3c835d84	0.016035803
221	0x3c4966c9	0.012292572
222	0x3cd93cf4	0.026518323
223	0x3babcbae	0.0052427864
224	0x3d1220fb	0.035675984
225	0x3c822272	0.015885565
226	0xbd426e66	-0.047468565
227	0x3ba3a802	0.0049943933
228	0xbd4d9e24	-0.050199643
229	0xbcaadfab	-0.020858606
230	0xbd4766c8	-0.048682004
231	0x3a7fce48	0.00097582163
232	0xbc66585c	-0.014059152
233	0xbcfc3a02	-0.030789379
234	0x3ca3e17d	0.020004982
235	0xbce1a2d7	-0.027543468
236	0x3cd055f8	0.025431618
237	0xbcfce020	-0.03086859
238	0xbd0cb2a1	-0.03435004
239	0x3d0970c2	0.0335548
240	0xbbc841a3	-0.00611134
241	0x3d145e2d	0.036222626
242	0xbd45e69b	-0.048315626
243	0xbd48cd42	-0.049023874
244	0xbcc7f888	-0.024410501
245	0xbd147826	-0.036247395
246	0x3ccc03a2	0.024904076
247	0xbd3fa119	-0.046784494
248	0xbd35fc9f	-0.04443037
249	0x3ce9ad8b	0.028525135
250	0xbd3e4b5d	-0.04645859
251	0x3ca0f8b0	0.019649833
252	0x3b9d3552	0.004797616
253	0xbbef3480	-0.0072999597
254	0x3d16affa	0.036788918
255	0xbd34d218	-0.044145674

fc1.bias f4 [128]
0	0xbd75dbe3	-0.060024153
1	0xbe36c40f	-0.17848228
2	0xbe0135ad	-0.12618132
3	0xbeb7a5cc	-0.3586868
4	0xbe1501ae	-0.14551422
5	0xbd8827ec	-0.066482395
6	0x3ef3ebb9	0.4764078
7	0xbe326f54	-0.17425281
8	0x3e2d5c19	0.16929664
9	0x3ecbc85c	0.398013
10	0xbe05131a	-0.12995568
11	0x3e10ca57	0.14139687
12	0xbe5f2de4	-0.2179485
13	0x3f303dc0	0.68844223
14	0xbf01883b	-0.50598496
15	0xbe42658a	-0.18984047
16	0x3cf7f6a9	0.030268984
17	0xbd5f2699	-0.05448017
18	0xb8ebdb41	-0.000112465124
19	0xbe44068e	-0.19143125
20	0xbeb6e9c4	-0.35725224
21	0xbec32e38	-0.381212
22	0x3ef27e85	0.47362152
23	0xbede21c8	-0.43385148
24	0xbe29b45c	-0.16572708
25	0x3e19c6a1	0.15017177
26	0xbe4d7864	-0.20065457
27	0x3d4af966	0.04955425
28	0xbd82c74b	-0.06385668
29	0x3d0c25be	0.03421568
30	0x3eb36f48	0.35045838
31	0xba7b67c9	-0.00095903553
32	0xbe5b120b	-0.21393602
33	0xbe0a7203	-0.13520055
34	0xbf000706	-0.50010717
35	0xbd9da83f	-0.07698106
36	0xbe5a6dc5	-0.21330936
37	0xbe53760f	-0.20650505
38	0xbe276366	-0.16346511
39	0xbeaf1c09	-0.34201077
40	0xbe870d43	-0.26377305
41	0xbe347309	-0.17622007
42	0x3ea7be97	0.32762596
43	0xbd5e8ad9	-0.054331634
44	0xbe03a9d8	-0.12857759
45	0xbeb7b654	-0.35881293
46	0xbdbac479	-0.091195054
47	0xbc545cac	-0.012961548
48	0x3c803973	0.015652394
49	0xbe9ce447	-0.30642912
50	0xbed605c5	-0.41801277
51	0x3e5ef3f8	0.21772754
52	0xbed76b76	-0.42074174
53	0x3e56fd50	0.20995069
54	0x3e8944dd	0.2681035
55	0xbe2012a2	-0.15632108
56	0xbf5f6dfb	-0.8727719
57	0xbe355af9	-0.17710485
58	0xbe947640	-0.28996468
59	0xbca4f7ed	-0.020137751
60	0xbe922c93	-0.28549632
61	0xbdf2df44	-0.11858991
62	0x3ec4e45d	0.38455477
63	0x3eae5661	0.34050277
64	0x3d154b22	0.036448605
65	0xbdf07d04	-0.11742595
66	0xbe1232e6	-0.14277229
67	0xbe6cfdc9	-0.23143686
68	0xbe171b07	-0.14756404
69	0x3f1e864c	0.6192367
70	0xbdbc6597	-0.09199064
71	0x3e587c8d	0.21141262
72	0xbe92eb7d	-0.28695288
73	0xbe40c0dc	-0.1882357
74	0x3cea90e7	0.028633548
75	0x3eb88888	0.36041665
76	0x3efff999	0.49995115
77	0xbda7835d	-0.081793524
78	0x3d812bb3	0.06307163
79	0xbdbebd4c	-0.09313449
80	0x3e25e5c5	0.16200931
81	0xbe832c70	-0.2561984
82	0xbe625ba2	-0.22105268
83	0x3e4fe485	0.20302017
84	0xbd896bd2	-0.06710018
85	0x3ee23194	0.4417845
86	0x3e624eeb	0.22100417
87	0xbe6e31ee	-0.23261234
88	0xbe517b65	-0.20457228
89	0xbe069103	-0.13141255
90	0xbee5a310	-0.4485097
91	0x3d1bfd57	0.0380834
92	0xbdde6a1b	-0.10860082
93	0xbe129cfd	-0.14317699
94	0x3da794dc	0.081826895
95	0xbf4b5977	-0.7943339
96	0xbe486f5b	-0.19573729
97	0x3cd88764	0.026431747
98	0xbf300e74	-0.68772054
99	0xbe2f2231	-0.17102887
100	0xbe6b4513	-0.22975568
101	0x3c9d45c8	0.019198313
102	0xbd9d1dc2	-0.076716915
103	0xbf0cead2	-0.5504581
104	0x3ef292d6	0.47377652
105	0x3ea4f642	0.3221913
106	0xbeceb4a7	-0.40372202
107	0xbdc38e28	-0.095485985
108	0xbe14d0cd	-0.14532776
109	0xbeac1efc	-0.3361739
110	0x3e4864a3	0.1956964
111	0xbe8fddf7	-0.28099033
112	0xbf0f115c	-0.55885863
113	0xbe8001ec	-0.25001466
114	0xbe41f08e	-0.1893942
115	0xbe85f8a6	-0.26166266
116	0x3ed9bd03	0.42527017
117	0xbf546562	-0.829672
118	0x3e5d61f4	0.21619397
119	0xbe347631	-0.17623211
120	0xbddea245	-0.10870794
121	0xbe2adbd1	-0.16685416
122	0x3e4a8485	0.19777115
123	0xbd9936f2	-0.07481183
124	0xbf32a7f2	-0.69787514
125	0xbdd7002a	-0.10498078
126	0x3cfd8b5d	0.030950243
127	0xbe33eaf5	-0.17570098

fc2.weight f4 [32, 128]
0	0x39f73d49	0.00047157172
1	0x3cc707e6	0.024295758
2	0xbcf48459	-0.029848265
3	0x3d10fd44	0.035397783
4	0x3d9bfe5d	0.07616875
5	0x3cebe94a	0.028797764
6	0xbe9c4cdb	-0.30527386
7	0x3d485950	0.0489133
8	0x3e15b474	0.14619619
9	0x3d068303	0.032839786
10	0x3c5d3217	0.013500712
11	0x3cf0ad2a	0.029379446
12	0xbce1bc1f	-0.027555523
13	0xbc407997	-0.011747739
14	0x3cac37cd	0.021022702
15	0xbaae0414	-0.0013276362
16	0xbfeeec7e	-1.8665922
17	0x3c0da4a5	0.008645211
18	0x3d54cd6f	0.05195373
19	0x3da53841	0.0806737
20	0x3d6f3d6c	0.058408186
21	0x3cefdb31	0.029279323
22	0x3c909ac2	0.01765192
23	0xbcaf60b8	-0.021408424
24	0x3c9abb07	0.01888801
25	0xbcc99fc5	-0.024612317
26	0xbcc8103b	-0.024421802
27	0xbdb2f06d	-0.08737264
28	0xbd27f28a	-0.041002788
29	0x3c34b7e0	0.011030167
30	0x3d802775	0.06257526
31	0xbcfbc7b4	-0.030734874
32	0xbd3b9960	-0.045800567
33	0x3bc65354	0.006052414
34	0x3d41d214	0.047319487
35	0x3cfabd0e	0.030607726
36	0x3d276d6d	0.04087584
37	0x3d10e61b	0.035375696
38	0x3db446b7	0.0880255
39	0xbd172b15	-0.03690632
40	0x3b592faf	0.0033139994
41	0xbdb962a0	-0.09052014
42	0xbd8d748f	-0.069069974
43	0x3da404b2	0.08008708
44	0xbd3e2ff0	-0.046432436
45	0xbd4a743a	-0.04942725
46	0x3c53457f	0.012894987
47	0x3c403964	0.011732433
48	0x3c64ebf2	0.013972269
49	0x3d88c5ae	0.066783294
50	0x3d05c3b0	0.032657325
51	0x3d9276f2	0.07151593
52	0x3cbbb50b	0.022913476
53	0x3d4dcd57	0.050244655
54	0x3ccd663a	0.02507316
55	0x3d78dfe9	0.060760412
56	0x3da47741	0.080305584
57	0xbdb347a4	-0.08753899
58	0xbce549c7	-0.027989281
59	0x3c2534f5	0.010083427
60	0x3bb6a3fc	0.0055737477
61	0x3d2fd1d2	0.04292471
62	0x3d2c05b0	0.04199761
63	0x3e6f4be3	0.23368792
64	0xbdb01239	-0.08597226
65	0xbd4d49d9	-0.050119255
66	0xbca796b2	-0.0204576
67	0xba22b5d3	-0.00062069035
68	0x3da8bdcd	0.082393266
69	0x3d4581e4	0.048219576
70	0xbda67217	-0.0812723
71	0xbbbaa38f	-0.0056957672
72	0x3cb7b119	0.022423314
73	0xbd2df9ae	-0.04247444
74	0x3c1e7083	0.00967038
75	0xbe1195c2	-0.14217284
76	0x3cce5b22	0.02518994
77	0x3d961205	0.07327656
78	0xbca1e0bf	-0.019760488
79	0xbcefb592	-0.029261384
80	0xbc805e56	-0.015669983
81	0xbbd95ba7	-0.0066332403
82	0x3dcb9d71	0.09942139
83	0x3b1eaad0	0.00242107
84	0xbd1cc916	-0.038277708
85	0x3cfd31bc	0.030907504
86	0x3c80c30e	0.01571801
87	0x3b95fd1b	0.0045772917
88	0xbd10fa48	-0.035394937
89	0xbc1159f4	-0.008871544
90	0x3b2c0432	0.0026247618
91	0xbd01e5b3	-0.0317132
92	0x3d09bd6c	0.033627912
93	0x3d9d8821	0.0769198
94	0xbc8652ed	-0.016396964
95	0x3d5e1af6	0.05422493
96	0x3b4a6b82	0.0030886834
97	0x3c31c932	0.010851191
98	0xbd90f53c	-0.07078025
99	0xbd8a16f6	-0.06742661
100	0x3c2cd19b	0.010548021
101	0xbc44b524	-0.012006078
102	0x3ce891ca	0.02838983
103	0x3cb0de2f	0.02159032
104	0xbdbc073e	-0.09181069
105	0x3c9b971c	0.018992953
106	0x3d1d0c76	0.03834196
107	0x3cf7edeb	0.030264815
108	0x3ceb7157	0.028740568
109	0x3ce997a8	0.028514698
110	0x3db38737	0.087660246
111	0x3ca0a831	0.01961145
112	0xbd24890b	-0.040169757
113	0xbd046bcd	-0.03232937
114	0xbc4de50f	-0.012566819
115	0xbc2d793b	-0.010587986
116	0xbd786d71	-0.060651246
117	0xbd368428	-0.044559628
118	0xbb8f72a6	-0.004377681
119	0x3e12df51	0.14343001
120	0xbcb97fbc	-0.022643916
121	0x3dc0fc37	0.09423106
122	0xbd224235	-0.03961392
123	0xbd220d80	-0.039563656
124	0x3d392dfb	0.045209866
125	0xbdb8b5ab	-0.090190254
126	0x3ca6f4ff	0.020380495
127	0xbcb026a4	-0.0215028
128	0x3d149258	0.036272377
129	0xbd9dc0a4	-0.07702759
130	0xbd5a5ca7	-0.053311016
131	0x3d937f9f	0.07202076
132	0xbd36f936	-0.04467126
133	0x3d539344	0.051654115
134	0x3d216b70	0.0394091
135	0x3b0c6b8f	0.0021426415
136	0xbe66d2f4	-0.2254141
137	0xbd1d0310	-0.038333
138	0xbdd3da84	-0.10344413
139	0xbde48bb3	-0.11159458
140	0x3dab2f90	0.08358681
141	0x3d74e2b1	0.059786502
142	0x3b23741f	0.002494104
143	0xbd811133	-0.063021086
144	0x3fc10d7b	1.5082239
145	0xbc327ed5	-0.010894497
146	0xbd3858c5	-0.045006532
147	0xbd79bd3c	-0.060971484
148	0xbd99304e	-0.074799165
149	0x3d3e7e20	0.046507
150	0x3de07799	0.109603114
151	0xbdab6476	-0.08368771
152	0x3c94cb9e	0.018163498
153	0x3dcb1444	0.09915975
154	0xbc49c1cf	-0.012314274
155	0x3c2751e1	0.010212393
156	0xbd4c4437	-0.049869742
157	0xbdaf80ac	-0.08569464
158	0x3c8228e4	0.015888639
159	0x3cfafe8c	0.030638956
160	0x3cf7d144	0.030251153
161	0x3cef494d	0.029209757
162	0x3d193943	0.037408125
163	0x3ab24698	0.0013601361
164	0xbd466849	-0.048439298
165	0xbd856d55	-0.06514994
166	0x3d382376	0.044955693
167	0xbdcbcab1	-0.0995077
168	0x3d8bf62f	0.06834065
169	0x3d3416c9	0.043967042
170	0x3db18f86	0.08669953
171	0xbc9e9ff8	-0.019363388
172	0xbd3dc39b	-0.046329122
173	0x3d6f65a4	0.05844654
174	0xbd88c478	-0.066780984
175	0x3cd75940	0.026287675
176	0x3b62317c	0.0034514358
177	0x3d741094	0.059586123
178	0x3c9a79f3	0.018856978
179	0x3db3ca52	0.08778824
180	0x3ca77964	0.020443626
181	0x3d3f169a	0.046652414
182	0xbda54c78	-0.08071226
183	0xbcbc30b5	-0.022972444
184	0xbd809fc6	-0.06280474
185	0xbd3ec0f9	-0.04657075
186	0x3d8fad84	0.07015517
187	0x3cc656d7	0.02421133
188	0x3c2c632e	0.010521693
189	0xbd196a4f	-0.0374549
190	0x3d1315f8	0.035909623
191	0xbe24a9a0	-0.16080332
192	0xbd882b7f	-0.06648921
193	0x3d338f1c	0.04383765
194	0x3bbcd405	0.0057625794
195	0xbb34134e	-0.0027477327
196	0x3d417995	0.04723509
197	0x3eacbb57	0.3373668
198	0xbd34c813	-0.04413612
199	0xbd293015	-0.04130562
200	0xbd840b05	-0.06447414
201	0xbcc66175	-0.024216393
202	0x3d6562be	0.05600237
203	0xbe46af28	-0.19402754
204	0x3d900283	0.07031729
205	0x3b979bbd	0.0046267197
206	0xbde149fc	-0.110004395
207	0xbd8855cc	-0.066569895
208	0xbdbc3047	-0.09188896
209	0x3dccef1e	0.100065455
210	0xbd1c1419	-0.038105104
211	0x3d9936c4	0.07481149
212	0x3c290bc1	0.010317744
213	0x3bab249e	0.005222871
214	0xbd3a7ca3	-0.04552902
215	0x3d77f23a	0.06053374
216	0x3d956ce0	0.07296157
217	0x3d970e8f	0.07375824
218	0xbc890973	-0.016728139
219	0xbe048c6c	-0.12944192
220	0x3d024a5a	0.03180919
221	0x3d171e55	0.03689416
222	0xbdd30c59	-0.103050895
223	0x3d015593	0.03157575
224	0xbd6d6eb8	-0.057966918
225	0xbdbda3a3	-0.09259727
226	0x3da87958	0.082262695
227	0xbcb682ad	-0.022279108
228	0xbd1b2aad	-0.037882496
229	0x3c93de99	0.018050479
230	0x3c911d27	0.017714096
231	0xbd35783b	-0.044304114
232	0x3db756d5	0.08952109
233	0x3debf026	0.11520414
234	0xbd8deb93	-0.06929698
235	0x3dbb883d	0.09156845
236	0xbca79608	-0.020457283
237	0xbcf95bc3	-0.030439263
238	0xbda22ecd	-0.07919083
239	0xbd87d53b	-0.06632467
240	0xbc903b40	-0.017606378
241	0x3cb87d20	0.022520602
242	0x3db13bae	0.08653961
243	0x3c9be8a9	0.01903184
244	0xbd0ca39f	-0.03433573
245	0xbd2ef3a3	-0.04271282
246	0xbd23bb9b	-0.039973836
247	0xbd0d2443	-0.03445841
248	0xbd839bf9	-0.06426234
249	0x3d0835ac	0.03325431
250	0x3d823860	0.06358409
251	0xbd561d99	-0.05227432
252	0xbddf9444	-0.10916951
253	0xbcd601b8	-0.026123866
254	0x3ca5e4bc	0.02025067
255	0xbca4e837	-0.02013026

fc2.bias f4 [32]
0	0x3d80a291	0.06281007
1	0x3d7f13b2	0.062274642
2	0xbcff49d6	-0.031163137
3	0x3bbda660	0.0057876557
4	0xbd2cc828	-0.04218307
5	0x3da4708d	0.0802928
6	0x3d8b154d	0.06791172
7	0xbd244df0	-0.04011339
8	0x3d87706f	0.06613242
9	0x3d93c5a9	0.07215435
10	0xbdad9b94	-0.0847694
11	0x3da56195	0.08075253
12	0xbd75f2a8	-0.06004587
13	0x3d1b826e	0.037966184
14	0xbd6e7180	-0.05821371
15	0x3d9e8a19	0.07741184
16	0x3c5778e8	0.013151385
17	0x3d954beb	0.07289871
18	0x3d996d33	0.07491531
19	0x3caa7af8	0.02081059
20	0x3ca90f28	0.02063711
21	0xbd2e508c	-0.042557284
22	0xbce640ba	-0.028107036
23	0x3d505f72	0.050872274
24	0x3b70b520	0.0036729053
25	0x3d95dd69	0.07317621
26	0x3d2ba0ee	0.04190152
27	0xbc1e4448	-0.009659834
28	0xbda87b0d	-0.08226595
29	0xbd930358	-0.07178372
30	0xbdadc3c0	-0.08484602
31	0xbd190291	-0.037355963
